{"modelTopology": {"node": [{"name": "input_4", "op": "Placeholder", "attr": {"dtype": {"type": "DT_FLOAT"}, "shape": {"shape": {"dim": [{"size": "-1"}, {"size": "-1"}, {"size": "-1"}, {"size": "3"}]}}}}, {"name": "dense_12/bias", "op": "Const", "attr": {"value": {"tensor": {"dtype": "DT_FLOAT", "tensorShape": {"dim": [{"size": "5"}]}}}, "dtype": {"type": "DT_FLOAT"}}}, {"name": "dense_12/kernel", "op": "Const", "attr": {"value": {"tensor": {"dtype": "DT_FLOAT", "tensorShape": {"dim": [{"size": "512"}, {"size": "5"}]}}}, "dtype": {"type": "DT_FLOAT"}}}, {"name": "dense_11/bias", "op": "Const", "attr": {"value": {"tensor": {"dtype": "DT_FLOAT", "tensorShape": {"dim": [{"size": "512"}]}}}, "dtype": {"type": "DT_FLOAT"}}}, {"name": "dense_11/kernel", "op": "Const", "attr": {"value": {"tensor": {"dtype": "DT_FLOAT", "tensorShape": {"dim": [{"size": "1024"}, {"size": "512"}]}}}, "dtype": {"type": "DT_FLOAT"}}}, {"name": "dense_10/bias", "op": "Const", "attr": {"value": {"tensor": {"dtype": "DT_FLOAT", "tensorShape": {"dim": [{"size": "1024"}]}}}, "dtype": {"type": "DT_FLOAT"}}}, {"name": "dense_10/kernel", "op": "Const", "attr": {"dtype": {"type": "DT_FLOAT"}, "value": {"tensor": {"dtype": "DT_FLOAT", "tensorShape": {"dim": [{"size": "1024"}, {"size": "1024"}]}}}}}, {"name": "dense_9/bias", "op": "Const", "attr": {"value": {"tensor": {"dtype": "DT_FLOAT", "tensorShape": {"dim": [{"size": "1024"}]}}}, "dtype": {"type": "DT_FLOAT"}}}, {"name": "dense_9/kernel", "op": "Const", "attr": {"value": {"tensor": {"dtype": "DT_FLOAT", "tensorShape": {"dim": [{"size": "1024"}, {"size": "1024"}]}}}, "dtype": {"type": "DT_FLOAT"}}}, {"name": "global_average_pooling2d_4/Mean/reduction_indices", "op": "Const", "attr": {"value": {"tensor": {"dtype": "DT_INT32", "tensorShape": {"dim": [{"size": "2"}]}}}, "dtype": {"type": "DT_INT32"}}}, {"name": "conv1_bn/keras_learning_phase/input", "op": "Const", "attr": {"value": {"tensor": {"dtype": "DT_BOOL", "tensorShape": {}}}, "dtype": {"type": "DT_BOOL"}}}, {"name": "conv1_bn_3/Const_4", "op": "Const", "attr": {"value": {"tensor": {"dtype": "DT_FLOAT", "tensorShape": {"dim": [{}]}}}, "dtype": {"type": "DT_FLOAT"}}}, {"name": "conv_pw_13_bn_3/beta", "op": "Const", "attr": {"dtype": {"type": "DT_FLOAT"}, "value": {"tensor": {"dtype": "DT_FLOAT", "tensorShape": {"dim": [{"size": "1024"}]}}}}}, {"name": "conv_pw_13_bn_3/gamma", "op": "Const", "attr": {"value": {"tensor": {"dtype": "DT_FLOAT", "tensorShape": {"dim": [{"size": "1024"}]}}}, "dtype": {"type": "DT_FLOAT"}}}, {"name": "conv_pw_13_3/kernel", "op": "Const", "attr": {"value": {"tensor": {"dtype": "DT_FLOAT", "tensorShape": {"dim": [{"size": "1"}, {"size": "1"}, {"size": "1024"}, {"size": "1024"}]}}}, "dtype": {"type": "DT_FLOAT"}}}, {"name": "conv_dw_13_bn_3/beta", "op": "Const", "attr": {"value": {"tensor": {"dtype": "DT_FLOAT", "tensorShape": {"dim": [{"size": "1024"}]}}}, "dtype": {"type": "DT_FLOAT"}}}, {"name": "conv_dw_13_bn_3/gamma", "op": "Const", "attr": {"dtype": {"type": "DT_FLOAT"}, "value": {"tensor": {"dtype": "DT_FLOAT", "tensorShape": {"dim": [{"size": "1024"}]}}}}}, {"name": "conv_dw_13_3/depthwise_kernel", "op": "Const", "attr": {"dtype": {"type": "DT_FLOAT"}, "value": {"tensor": {"dtype": "DT_FLOAT", "tensorShape": {"dim": [{"size": "3"}, {"size": "3"}, {"size": "1024"}, {"size": "1"}]}}}}}, {"name": "conv_pw_12_bn_3/beta", "op": "Const", "attr": {"value": {"tensor": {"dtype": "DT_FLOAT", "tensorShape": {"dim": [{"size": "1024"}]}}}, "dtype": {"type": "DT_FLOAT"}}}, {"name": "conv_pw_12_bn_3/gamma", "op": "Const", "attr": {"value": {"tensor": {"dtype": "DT_FLOAT", "tensorShape": {"dim": [{"size": "1024"}]}}}, "dtype": {"type": "DT_FLOAT"}}}, {"name": "conv_pw_12_3/kernel", "op": "Const", "attr": {"value": {"tensor": {"dtype": "DT_FLOAT", "tensorShape": {"dim": [{"size": "1"}, {"size": "1"}, {"size": "512"}, {"size": "1024"}]}}}, "dtype": {"type": "DT_FLOAT"}}}, {"name": "conv_dw_12_bn_3/beta", "op": "Const", "attr": {"value": {"tensor": {"dtype": "DT_FLOAT", "tensorShape": {"dim": [{"size": "512"}]}}}, "dtype": {"type": "DT_FLOAT"}}}, {"name": "conv_dw_12_bn_3/gamma", "op": "Const", "attr": {"value": {"tensor": {"dtype": "DT_FLOAT", "tensorShape": {"dim": [{"size": "512"}]}}}, "dtype": {"type": "DT_FLOAT"}}}, {"name": "conv_dw_12_3/depthwise_kernel", "op": "Const", "attr": {"value": {"tensor": {"dtype": "DT_FLOAT", "tensorShape": {"dim": [{"size": "3"}, {"size": "3"}, {"size": "512"}, {"size": "1"}]}}}, "dtype": {"type": "DT_FLOAT"}}}, {"name": "conv1_pad_3/Pad/paddings", "op": "Const", "attr": {"value": {"tensor": {"dtype": "DT_INT32", "tensorShape": {"dim": [{"size": "4"}, {"size": "2"}]}}}, "dtype": {"type": "DT_INT32"}}}, {"name": "conv_pw_11_bn_3/beta", "op": "Const", "attr": {"value": {"tensor": {"dtype": "DT_FLOAT", "tensorShape": {"dim": [{"size": "512"}]}}}, "dtype": {"type": "DT_FLOAT"}}}, {"name": "conv_pw_11_bn_3/gamma", "op": "Const", "attr": {"value": {"tensor": {"dtype": "DT_FLOAT", "tensorShape": {"dim": [{"size": "512"}]}}}, "dtype": {"type": "DT_FLOAT"}}}, {"name": "conv_pw_11_3/kernel", "op": "Const", "attr": {"value": {"tensor": {"dtype": "DT_FLOAT", "tensorShape": {"dim": [{"size": "1"}, {"size": "1"}, {"size": "512"}, {"size": "512"}]}}}, "dtype": {"type": "DT_FLOAT"}}}, {"name": "conv_dw_11_bn_3/beta", "op": "Const", "attr": {"value": {"tensor": {"dtype": "DT_FLOAT", "tensorShape": {"dim": [{"size": "512"}]}}}, "dtype": {"type": "DT_FLOAT"}}}, {"name": "conv_dw_11_bn_3/gamma", "op": "Const", "attr": {"value": {"tensor": {"dtype": "DT_FLOAT", "tensorShape": {"dim": [{"size": "512"}]}}}, "dtype": {"type": "DT_FLOAT"}}}, {"name": "conv_dw_11_3/depthwise_kernel", "op": "Const", "attr": {"value": {"tensor": {"dtype": "DT_FLOAT", "tensorShape": {"dim": [{"size": "3"}, {"size": "3"}, {"size": "512"}, {"size": "1"}]}}}, "dtype": {"type": "DT_FLOAT"}}}, {"name": "conv_pw_10_bn_3/beta", "op": "Const", "attr": {"value": {"tensor": {"dtype": "DT_FLOAT", "tensorShape": {"dim": [{"size": "512"}]}}}, "dtype": {"type": "DT_FLOAT"}}}, {"name": "conv_pw_10_bn_3/gamma", "op": "Const", "attr": {"dtype": {"type": "DT_FLOAT"}, "value": {"tensor": {"dtype": "DT_FLOAT", "tensorShape": {"dim": [{"size": "512"}]}}}}}, {"name": "conv_pw_10_3/kernel", "op": "Const", "attr": {"value": {"tensor": {"dtype": "DT_FLOAT", "tensorShape": {"dim": [{"size": "1"}, {"size": "1"}, {"size": "512"}, {"size": "512"}]}}}, "dtype": {"type": "DT_FLOAT"}}}, {"name": "conv_dw_10_bn_3/beta", "op": "Const", "attr": {"dtype": {"type": "DT_FLOAT"}, "value": {"tensor": {"dtype": "DT_FLOAT", "tensorShape": {"dim": [{"size": "512"}]}}}}}, {"name": "conv_dw_10_bn_3/gamma", "op": "Const", "attr": {"dtype": {"type": "DT_FLOAT"}, "value": {"tensor": {"dtype": "DT_FLOAT", "tensorShape": {"dim": [{"size": "512"}]}}}}}, {"name": "conv_dw_10_3/depthwise_kernel", "op": "Const", "attr": {"value": {"tensor": {"dtype": "DT_FLOAT", "tensorShape": {"dim": [{"size": "3"}, {"size": "3"}, {"size": "512"}, {"size": "1"}]}}}, "dtype": {"type": "DT_FLOAT"}}}, {"name": "conv_pw_9_bn_3/beta", "op": "Const", "attr": {"value": {"tensor": {"dtype": "DT_FLOAT", "tensorShape": {"dim": [{"size": "512"}]}}}, "dtype": {"type": "DT_FLOAT"}}}, {"name": "conv_pw_9_bn_3/gamma", "op": "Const", "attr": {"value": {"tensor": {"dtype": "DT_FLOAT", "tensorShape": {"dim": [{"size": "512"}]}}}, "dtype": {"type": "DT_FLOAT"}}}, {"name": "conv_pw_9_3/kernel", "op": "Const", "attr": {"value": {"tensor": {"dtype": "DT_FLOAT", "tensorShape": {"dim": [{"size": "1"}, {"size": "1"}, {"size": "512"}, {"size": "512"}]}}}, "dtype": {"type": "DT_FLOAT"}}}, {"name": "conv_dw_9_bn_3/beta", "op": "Const", "attr": {"value": {"tensor": {"dtype": "DT_FLOAT", "tensorShape": {"dim": [{"size": "512"}]}}}, "dtype": {"type": "DT_FLOAT"}}}, {"name": "conv_dw_9_bn_3/gamma", "op": "Const", "attr": {"value": {"tensor": {"dtype": "DT_FLOAT", "tensorShape": {"dim": [{"size": "512"}]}}}, "dtype": {"type": "DT_FLOAT"}}}, {"name": "conv_dw_9_3/depthwise_kernel", "op": "Const", "attr": {"dtype": {"type": "DT_FLOAT"}, "value": {"tensor": {"dtype": "DT_FLOAT", "tensorShape": {"dim": [{"size": "3"}, {"size": "3"}, {"size": "512"}, {"size": "1"}]}}}}}, {"name": "conv_pw_8_bn_3/beta", "op": "Const", "attr": {"value": {"tensor": {"dtype": "DT_FLOAT", "tensorShape": {"dim": [{"size": "512"}]}}}, "dtype": {"type": "DT_FLOAT"}}}, {"name": "conv_pw_8_bn_3/gamma", "op": "Const", "attr": {"value": {"tensor": {"dtype": "DT_FLOAT", "tensorShape": {"dim": [{"size": "512"}]}}}, "dtype": {"type": "DT_FLOAT"}}}, {"name": "conv_pw_8_3/kernel", "op": "Const", "attr": {"value": {"tensor": {"dtype": "DT_FLOAT", "tensorShape": {"dim": [{"size": "1"}, {"size": "1"}, {"size": "512"}, {"size": "512"}]}}}, "dtype": {"type": "DT_FLOAT"}}}, {"name": "conv_dw_8_bn_3/beta", "op": "Const", "attr": {"value": {"tensor": {"dtype": "DT_FLOAT", "tensorShape": {"dim": [{"size": "512"}]}}}, "dtype": {"type": "DT_FLOAT"}}}, {"name": "conv_dw_8_bn_3/gamma", "op": "Const", "attr": {"value": {"tensor": {"dtype": "DT_FLOAT", "tensorShape": {"dim": [{"size": "512"}]}}}, "dtype": {"type": "DT_FLOAT"}}}, {"name": "conv_dw_8_3/depthwise_kernel", "op": "Const", "attr": {"value": {"tensor": {"dtype": "DT_FLOAT", "tensorShape": {"dim": [{"size": "3"}, {"size": "3"}, {"size": "512"}, {"size": "1"}]}}}, "dtype": {"type": "DT_FLOAT"}}}, {"name": "conv_pw_7_bn_3/beta", "op": "Const", "attr": {"value": {"tensor": {"dtype": "DT_FLOAT", "tensorShape": {"dim": [{"size": "512"}]}}}, "dtype": {"type": "DT_FLOAT"}}}, {"name": "conv_pw_7_bn_3/gamma", "op": "Const", "attr": {"dtype": {"type": "DT_FLOAT"}, "value": {"tensor": {"dtype": "DT_FLOAT", "tensorShape": {"dim": [{"size": "512"}]}}}}}, {"name": "conv_pw_7_3/kernel", "op": "Const", "attr": {"dtype": {"type": "DT_FLOAT"}, "value": {"tensor": {"dtype": "DT_FLOAT", "tensorShape": {"dim": [{"size": "1"}, {"size": "1"}, {"size": "512"}, {"size": "512"}]}}}}}, {"name": "conv_dw_7_bn_3/beta", "op": "Const", "attr": {"value": {"tensor": {"dtype": "DT_FLOAT", "tensorShape": {"dim": [{"size": "512"}]}}}, "dtype": {"type": "DT_FLOAT"}}}, {"name": "conv_dw_7_bn_3/gamma", "op": "Const", "attr": {"value": {"tensor": {"dtype": "DT_FLOAT", "tensorShape": {"dim": [{"size": "512"}]}}}, "dtype": {"type": "DT_FLOAT"}}}, {"name": "conv_dw_7_3/depthwise_kernel", "op": "Const", "attr": {"dtype": {"type": "DT_FLOAT"}, "value": {"tensor": {"dtype": "DT_FLOAT", "tensorShape": {"dim": [{"size": "3"}, {"size": "3"}, {"size": "512"}, {"size": "1"}]}}}}}, {"name": "conv_pw_6_bn_3/beta", "op": "Const", "attr": {"value": {"tensor": {"dtype": "DT_FLOAT", "tensorShape": {"dim": [{"size": "512"}]}}}, "dtype": {"type": "DT_FLOAT"}}}, {"name": "conv_pw_6_bn_3/gamma", "op": "Const", "attr": {"value": {"tensor": {"dtype": "DT_FLOAT", "tensorShape": {"dim": [{"size": "512"}]}}}, "dtype": {"type": "DT_FLOAT"}}}, {"name": "conv_pw_6_3/kernel", "op": "Const", "attr": {"value": {"tensor": {"dtype": "DT_FLOAT", "tensorShape": {"dim": [{"size": "1"}, {"size": "1"}, {"size": "256"}, {"size": "512"}]}}}, "dtype": {"type": "DT_FLOAT"}}}, {"name": "conv_dw_6_bn_3/beta", "op": "Const", "attr": {"value": {"tensor": {"dtype": "DT_FLOAT", "tensorShape": {"dim": [{"size": "256"}]}}}, "dtype": {"type": "DT_FLOAT"}}}, {"name": "conv_dw_6_bn_3/gamma", "op": "Const", "attr": {"value": {"tensor": {"dtype": "DT_FLOAT", "tensorShape": {"dim": [{"size": "256"}]}}}, "dtype": {"type": "DT_FLOAT"}}}, {"name": "conv_dw_6_3/depthwise_kernel", "op": "Const", "attr": {"value": {"tensor": {"dtype": "DT_FLOAT", "tensorShape": {"dim": [{"size": "3"}, {"size": "3"}, {"size": "256"}, {"size": "1"}]}}}, "dtype": {"type": "DT_FLOAT"}}}, {"name": "conv_pw_5_bn_3/beta", "op": "Const", "attr": {"value": {"tensor": {"dtype": "DT_FLOAT", "tensorShape": {"dim": [{"size": "256"}]}}}, "dtype": {"type": "DT_FLOAT"}}}, {"name": "conv_pw_5_bn_3/gamma", "op": "Const", "attr": {"value": {"tensor": {"dtype": "DT_FLOAT", "tensorShape": {"dim": [{"size": "256"}]}}}, "dtype": {"type": "DT_FLOAT"}}}, {"name": "conv_pw_5_3/kernel", "op": "Const", "attr": {"value": {"tensor": {"dtype": "DT_FLOAT", "tensorShape": {"dim": [{"size": "1"}, {"size": "1"}, {"size": "256"}, {"size": "256"}]}}}, "dtype": {"type": "DT_FLOAT"}}}, {"name": "conv_dw_5_bn_3/beta", "op": "Const", "attr": {"value": {"tensor": {"dtype": "DT_FLOAT", "tensorShape": {"dim": [{"size": "256"}]}}}, "dtype": {"type": "DT_FLOAT"}}}, {"name": "conv_dw_5_bn_3/gamma", "op": "Const", "attr": {"dtype": {"type": "DT_FLOAT"}, "value": {"tensor": {"dtype": "DT_FLOAT", "tensorShape": {"dim": [{"size": "256"}]}}}}}, {"name": "conv_dw_5_3/depthwise_kernel", "op": "Const", "attr": {"value": {"tensor": {"dtype": "DT_FLOAT", "tensorShape": {"dim": [{"size": "3"}, {"size": "3"}, {"size": "256"}, {"size": "1"}]}}}, "dtype": {"type": "DT_FLOAT"}}}, {"name": "conv_pw_4_bn_3/beta", "op": "Const", "attr": {"value": {"tensor": {"dtype": "DT_FLOAT", "tensorShape": {"dim": [{"size": "256"}]}}}, "dtype": {"type": "DT_FLOAT"}}}, {"name": "conv_pw_4_bn_3/gamma", "op": "Const", "attr": {"value": {"tensor": {"dtype": "DT_FLOAT", "tensorShape": {"dim": [{"size": "256"}]}}}, "dtype": {"type": "DT_FLOAT"}}}, {"name": "conv_pw_4_3/kernel", "op": "Const", "attr": {"value": {"tensor": {"dtype": "DT_FLOAT", "tensorShape": {"dim": [{"size": "1"}, {"size": "1"}, {"size": "128"}, {"size": "256"}]}}}, "dtype": {"type": "DT_FLOAT"}}}, {"name": "conv_dw_4_bn_3/beta", "op": "Const", "attr": {"value": {"tensor": {"dtype": "DT_FLOAT", "tensorShape": {"dim": [{"size": "128"}]}}}, "dtype": {"type": "DT_FLOAT"}}}, {"name": "conv_dw_4_bn_3/gamma", "op": "Const", "attr": {"value": {"tensor": {"dtype": "DT_FLOAT", "tensorShape": {"dim": [{"size": "128"}]}}}, "dtype": {"type": "DT_FLOAT"}}}, {"name": "conv_dw_4_3/depthwise_kernel", "op": "Const", "attr": {"value": {"tensor": {"dtype": "DT_FLOAT", "tensorShape": {"dim": [{"size": "3"}, {"size": "3"}, {"size": "128"}, {"size": "1"}]}}}, "dtype": {"type": "DT_FLOAT"}}}, {"name": "conv_pw_3_bn_3/beta", "op": "Const", "attr": {"value": {"tensor": {"dtype": "DT_FLOAT", "tensorShape": {"dim": [{"size": "128"}]}}}, "dtype": {"type": "DT_FLOAT"}}}, {"name": "conv_pw_3_bn_3/gamma", "op": "Const", "attr": {"dtype": {"type": "DT_FLOAT"}, "value": {"tensor": {"dtype": "DT_FLOAT", "tensorShape": {"dim": [{"size": "128"}]}}}}}, {"name": "conv_pw_3_3/kernel", "op": "Const", "attr": {"value": {"tensor": {"dtype": "DT_FLOAT", "tensorShape": {"dim": [{"size": "1"}, {"size": "1"}, {"size": "128"}, {"size": "128"}]}}}, "dtype": {"type": "DT_FLOAT"}}}, {"name": "conv_dw_3_bn_3/beta", "op": "Const", "attr": {"value": {"tensor": {"dtype": "DT_FLOAT", "tensorShape": {"dim": [{"size": "128"}]}}}, "dtype": {"type": "DT_FLOAT"}}}, {"name": "conv_dw_3_bn_3/gamma", "op": "Const", "attr": {"value": {"tensor": {"dtype": "DT_FLOAT", "tensorShape": {"dim": [{"size": "128"}]}}}, "dtype": {"type": "DT_FLOAT"}}}, {"name": "conv_dw_3_3/depthwise_kernel", "op": "Const", "attr": {"value": {"tensor": {"dtype": "DT_FLOAT", "tensorShape": {"dim": [{"size": "3"}, {"size": "3"}, {"size": "128"}, {"size": "1"}]}}}, "dtype": {"type": "DT_FLOAT"}}}, {"name": "conv_pw_2_bn_3/beta", "op": "Const", "attr": {"value": {"tensor": {"dtype": "DT_FLOAT", "tensorShape": {"dim": [{"size": "128"}]}}}, "dtype": {"type": "DT_FLOAT"}}}, {"name": "conv_pw_2_bn_3/gamma", "op": "Const", "attr": {"value": {"tensor": {"dtype": "DT_FLOAT", "tensorShape": {"dim": [{"size": "128"}]}}}, "dtype": {"type": "DT_FLOAT"}}}, {"name": "conv_pw_2_3/kernel", "op": "Const", "attr": {"value": {"tensor": {"dtype": "DT_FLOAT", "tensorShape": {"dim": [{"size": "1"}, {"size": "1"}, {"size": "64"}, {"size": "128"}]}}}, "dtype": {"type": "DT_FLOAT"}}}, {"name": "conv_dw_2_bn_3/beta", "op": "Const", "attr": {"value": {"tensor": {"dtype": "DT_FLOAT", "tensorShape": {"dim": [{"size": "64"}]}}}, "dtype": {"type": "DT_FLOAT"}}}, {"name": "conv_dw_2_bn_3/gamma", "op": "Const", "attr": {"value": {"tensor": {"dtype": "DT_FLOAT", "tensorShape": {"dim": [{"size": "64"}]}}}, "dtype": {"type": "DT_FLOAT"}}}, {"name": "conv_dw_2_3/depthwise_kernel", "op": "Const", "attr": {"value": {"tensor": {"dtype": "DT_FLOAT", "tensorShape": {"dim": [{"size": "3"}, {"size": "3"}, {"size": "64"}, {"size": "1"}]}}}, "dtype": {"type": "DT_FLOAT"}}}, {"name": "conv_pw_1_bn_3/beta", "op": "Const", "attr": {"value": {"tensor": {"dtype": "DT_FLOAT", "tensorShape": {"dim": [{"size": "64"}]}}}, "dtype": {"type": "DT_FLOAT"}}}, {"name": "conv_pw_1_bn_3/gamma", "op": "Const", "attr": {"value": {"tensor": {"dtype": "DT_FLOAT", "tensorShape": {"dim": [{"size": "64"}]}}}, "dtype": {"type": "DT_FLOAT"}}}, {"name": "conv_pw_1_3/kernel", "op": "Const", "attr": {"value": {"tensor": {"dtype": "DT_FLOAT", "tensorShape": {"dim": [{"size": "1"}, {"size": "1"}, {"size": "32"}, {"size": "64"}]}}}, "dtype": {"type": "DT_FLOAT"}}}, {"name": "conv_dw_1_bn_3/beta", "op": "Const", "attr": {"value": {"tensor": {"dtype": "DT_FLOAT", "tensorShape": {"dim": [{"size": "32"}]}}}, "dtype": {"type": "DT_FLOAT"}}}, {"name": "conv_dw_1_bn_3/gamma", "op": "Const", "attr": {"value": {"tensor": {"dtype": "DT_FLOAT", "tensorShape": {"dim": [{"size": "32"}]}}}, "dtype": {"type": "DT_FLOAT"}}}, {"name": "conv_dw_1_3/depthwise_kernel", "op": "Const", "attr": {"value": {"tensor": {"dtype": "DT_FLOAT", "tensorShape": {"dim": [{"size": "3"}, {"size": "3"}, {"size": "32"}, {"size": "1"}]}}}, "dtype": {"type": "DT_FLOAT"}}}, {"name": "conv1_bn_3/beta", "op": "Const", "attr": {"value": {"tensor": {"dtype": "DT_FLOAT", "tensorShape": {"dim": [{"size": "32"}]}}}, "dtype": {"type": "DT_FLOAT"}}}, {"name": "conv1_bn_3/gamma", "op": "Const", "attr": {"dtype": {"type": "DT_FLOAT"}, "value": {"tensor": {"dtype": "DT_FLOAT", "tensorShape": {"dim": [{"size": "32"}]}}}}}, {"name": "conv1_3/kernel", "op": "Const", "attr": {"value": {"tensor": {"dtype": "DT_FLOAT", "tensorShape": {"dim": [{"size": "3"}, {"size": "3"}, {"size": "3"}, {"size": "32"}]}}}, "dtype": {"type": "DT_FLOAT"}}}, {"name": "conv1_bn_3/moving_variance", "op": "Const", "attr": {"value": {"tensor": {"dtype": "DT_FLOAT", "tensorShape": {"dim": [{"size": "32"}]}}}, "dtype": {"type": "DT_FLOAT"}}}, {"name": "conv1_bn_3/moving_mean", "op": "Const", "attr": {"value": {"tensor": {"dtype": "DT_FLOAT", "tensorShape": {"dim": [{"size": "32"}]}}}, "dtype": {"type": "DT_FLOAT"}}}, {"name": "conv_dw_1_bn_3/moving_variance", "op": "Const", "attr": {"value": {"tensor": {"dtype": "DT_FLOAT", "tensorShape": {"dim": [{"size": "32"}]}}}, "dtype": {"type": "DT_FLOAT"}}}, {"name": "conv_dw_1_bn_3/moving_mean", "op": "Const", "attr": {"value": {"tensor": {"dtype": "DT_FLOAT", "tensorShape": {"dim": [{"size": "32"}]}}}, "dtype": {"type": "DT_FLOAT"}}}, {"name": "conv_pw_1_bn_3/moving_variance", "op": "Const", "attr": {"value": {"tensor": {"dtype": "DT_FLOAT", "tensorShape": {"dim": [{"size": "64"}]}}}, "dtype": {"type": "DT_FLOAT"}}}, {"name": "conv_pw_1_bn_3/moving_mean", "op": "Const", "attr": {"value": {"tensor": {"dtype": "DT_FLOAT", "tensorShape": {"dim": [{"size": "64"}]}}}, "dtype": {"type": "DT_FLOAT"}}}, {"name": "conv_dw_2_bn_3/moving_variance", "op": "Const", "attr": {"dtype": {"type": "DT_FLOAT"}, "value": {"tensor": {"dtype": "DT_FLOAT", "tensorShape": {"dim": [{"size": "64"}]}}}}}, {"name": "conv_dw_2_bn_3/moving_mean", "op": "Const", "attr": {"value": {"tensor": {"dtype": "DT_FLOAT", "tensorShape": {"dim": [{"size": "64"}]}}}, "dtype": {"type": "DT_FLOAT"}}}, {"name": "conv_pw_2_bn_3/moving_variance", "op": "Const", "attr": {"value": {"tensor": {"dtype": "DT_FLOAT", "tensorShape": {"dim": [{"size": "128"}]}}}, "dtype": {"type": "DT_FLOAT"}}}, {"name": "conv_pw_2_bn_3/moving_mean", "op": "Const", "attr": {"value": {"tensor": {"dtype": "DT_FLOAT", "tensorShape": {"dim": [{"size": "128"}]}}}, "dtype": {"type": "DT_FLOAT"}}}, {"name": "conv_dw_3_bn_3/moving_variance", "op": "Const", "attr": {"value": {"tensor": {"dtype": "DT_FLOAT", "tensorShape": {"dim": [{"size": "128"}]}}}, "dtype": {"type": "DT_FLOAT"}}}, {"name": "conv_dw_3_bn_3/moving_mean", "op": "Const", "attr": {"value": {"tensor": {"dtype": "DT_FLOAT", "tensorShape": {"dim": [{"size": "128"}]}}}, "dtype": {"type": "DT_FLOAT"}}}, {"name": "conv_pw_3_bn_3/moving_variance", "op": "Const", "attr": {"value": {"tensor": {"dtype": "DT_FLOAT", "tensorShape": {"dim": [{"size": "128"}]}}}, "dtype": {"type": "DT_FLOAT"}}}, {"name": "conv_pw_3_bn_3/moving_mean", "op": "Const", "attr": {"value": {"tensor": {"dtype": "DT_FLOAT", "tensorShape": {"dim": [{"size": "128"}]}}}, "dtype": {"type": "DT_FLOAT"}}}, {"name": "conv_dw_4_bn_3/moving_variance", "op": "Const", "attr": {"value": {"tensor": {"dtype": "DT_FLOAT", "tensorShape": {"dim": [{"size": "128"}]}}}, "dtype": {"type": "DT_FLOAT"}}}, {"name": "conv_dw_4_bn_3/moving_mean", "op": "Const", "attr": {"value": {"tensor": {"dtype": "DT_FLOAT", "tensorShape": {"dim": [{"size": "128"}]}}}, "dtype": {"type": "DT_FLOAT"}}}, {"name": "conv_pw_4_bn_3/moving_variance", "op": "Const", "attr": {"value": {"tensor": {"dtype": "DT_FLOAT", "tensorShape": {"dim": [{"size": "256"}]}}}, "dtype": {"type": "DT_FLOAT"}}}, {"name": "conv_pw_4_bn_3/moving_mean", "op": "Const", "attr": {"dtype": {"type": "DT_FLOAT"}, "value": {"tensor": {"dtype": "DT_FLOAT", "tensorShape": {"dim": [{"size": "256"}]}}}}}, {"name": "conv_dw_5_bn_3/moving_variance", "op": "Const", "attr": {"value": {"tensor": {"dtype": "DT_FLOAT", "tensorShape": {"dim": [{"size": "256"}]}}}, "dtype": {"type": "DT_FLOAT"}}}, {"name": "conv_dw_5_bn_3/moving_mean", "op": "Const", "attr": {"dtype": {"type": "DT_FLOAT"}, "value": {"tensor": {"dtype": "DT_FLOAT", "tensorShape": {"dim": [{"size": "256"}]}}}}}, {"name": "conv_pw_5_bn_3/moving_variance", "op": "Const", "attr": {"value": {"tensor": {"dtype": "DT_FLOAT", "tensorShape": {"dim": [{"size": "256"}]}}}, "dtype": {"type": "DT_FLOAT"}}}, {"name": "conv_pw_5_bn_3/moving_mean", "op": "Const", "attr": {"dtype": {"type": "DT_FLOAT"}, "value": {"tensor": {"dtype": "DT_FLOAT", "tensorShape": {"dim": [{"size": "256"}]}}}}}, {"name": "conv_dw_6_bn_3/moving_variance", "op": "Const", "attr": {"value": {"tensor": {"dtype": "DT_FLOAT", "tensorShape": {"dim": [{"size": "256"}]}}}, "dtype": {"type": "DT_FLOAT"}}}, {"name": "conv_dw_6_bn_3/moving_mean", "op": "Const", "attr": {"value": {"tensor": {"dtype": "DT_FLOAT", "tensorShape": {"dim": [{"size": "256"}]}}}, "dtype": {"type": "DT_FLOAT"}}}, {"name": "conv_pw_6_bn_3/moving_variance", "op": "Const", "attr": {"value": {"tensor": {"dtype": "DT_FLOAT", "tensorShape": {"dim": [{"size": "512"}]}}}, "dtype": {"type": "DT_FLOAT"}}}, {"name": "conv_pw_6_bn_3/moving_mean", "op": "Const", "attr": {"value": {"tensor": {"dtype": "DT_FLOAT", "tensorShape": {"dim": [{"size": "512"}]}}}, "dtype": {"type": "DT_FLOAT"}}}, {"name": "conv_dw_7_bn_3/moving_variance", "op": "Const", "attr": {"value": {"tensor": {"dtype": "DT_FLOAT", "tensorShape": {"dim": [{"size": "512"}]}}}, "dtype": {"type": "DT_FLOAT"}}}, {"name": "conv_dw_7_bn_3/moving_mean", "op": "Const", "attr": {"value": {"tensor": {"dtype": "DT_FLOAT", "tensorShape": {"dim": [{"size": "512"}]}}}, "dtype": {"type": "DT_FLOAT"}}}, {"name": "conv_pw_7_bn_3/moving_variance", "op": "Const", "attr": {"value": {"tensor": {"dtype": "DT_FLOAT", "tensorShape": {"dim": [{"size": "512"}]}}}, "dtype": {"type": "DT_FLOAT"}}}, {"name": "conv_pw_7_bn_3/moving_mean", "op": "Const", "attr": {"value": {"tensor": {"dtype": "DT_FLOAT", "tensorShape": {"dim": [{"size": "512"}]}}}, "dtype": {"type": "DT_FLOAT"}}}, {"name": "conv_dw_8_bn_3/moving_variance", "op": "Const", "attr": {"value": {"tensor": {"dtype": "DT_FLOAT", "tensorShape": {"dim": [{"size": "512"}]}}}, "dtype": {"type": "DT_FLOAT"}}}, {"name": "conv_dw_8_bn_3/moving_mean", "op": "Const", "attr": {"value": {"tensor": {"dtype": "DT_FLOAT", "tensorShape": {"dim": [{"size": "512"}]}}}, "dtype": {"type": "DT_FLOAT"}}}, {"name": "conv_pw_8_bn_3/moving_variance", "op": "Const", "attr": {"value": {"tensor": {"dtype": "DT_FLOAT", "tensorShape": {"dim": [{"size": "512"}]}}}, "dtype": {"type": "DT_FLOAT"}}}, {"name": "conv_pw_8_bn_3/moving_mean", "op": "Const", "attr": {"value": {"tensor": {"dtype": "DT_FLOAT", "tensorShape": {"dim": [{"size": "512"}]}}}, "dtype": {"type": "DT_FLOAT"}}}, {"name": "conv_dw_9_bn_3/moving_variance", "op": "Const", "attr": {"value": {"tensor": {"dtype": "DT_FLOAT", "tensorShape": {"dim": [{"size": "512"}]}}}, "dtype": {"type": "DT_FLOAT"}}}, {"name": "conv_dw_9_bn_3/moving_mean", "op": "Const", "attr": {"value": {"tensor": {"dtype": "DT_FLOAT", "tensorShape": {"dim": [{"size": "512"}]}}}, "dtype": {"type": "DT_FLOAT"}}}, {"name": "conv_pw_9_bn_3/moving_variance", "op": "Const", "attr": {"dtype": {"type": "DT_FLOAT"}, "value": {"tensor": {"dtype": "DT_FLOAT", "tensorShape": {"dim": [{"size": "512"}]}}}}}, {"name": "conv_pw_9_bn_3/moving_mean", "op": "Const", "attr": {"dtype": {"type": "DT_FLOAT"}, "value": {"tensor": {"dtype": "DT_FLOAT", "tensorShape": {"dim": [{"size": "512"}]}}}}}, {"name": "conv_dw_10_bn_3/moving_variance", "op": "Const", "attr": {"value": {"tensor": {"dtype": "DT_FLOAT", "tensorShape": {"dim": [{"size": "512"}]}}}, "dtype": {"type": "DT_FLOAT"}}}, {"name": "conv_dw_10_bn_3/moving_mean", "op": "Const", "attr": {"value": {"tensor": {"dtype": "DT_FLOAT", "tensorShape": {"dim": [{"size": "512"}]}}}, "dtype": {"type": "DT_FLOAT"}}}, {"name": "conv_pw_10_bn_3/moving_variance", "op": "Const", "attr": {"value": {"tensor": {"dtype": "DT_FLOAT", "tensorShape": {"dim": [{"size": "512"}]}}}, "dtype": {"type": "DT_FLOAT"}}}, {"name": "conv_pw_10_bn_3/moving_mean", "op": "Const", "attr": {"value": {"tensor": {"dtype": "DT_FLOAT", "tensorShape": {"dim": [{"size": "512"}]}}}, "dtype": {"type": "DT_FLOAT"}}}, {"name": "conv_dw_11_bn_3/moving_variance", "op": "Const", "attr": {"value": {"tensor": {"dtype": "DT_FLOAT", "tensorShape": {"dim": [{"size": "512"}]}}}, "dtype": {"type": "DT_FLOAT"}}}, {"name": "conv_dw_11_bn_3/moving_mean", "op": "Const", "attr": {"value": {"tensor": {"dtype": "DT_FLOAT", "tensorShape": {"dim": [{"size": "512"}]}}}, "dtype": {"type": "DT_FLOAT"}}}, {"name": "conv_pw_11_bn_3/moving_variance", "op": "Const", "attr": {"value": {"tensor": {"dtype": "DT_FLOAT", "tensorShape": {"dim": [{"size": "512"}]}}}, "dtype": {"type": "DT_FLOAT"}}}, {"name": "conv_pw_11_bn_3/moving_mean", "op": "Const", "attr": {"value": {"tensor": {"dtype": "DT_FLOAT", "tensorShape": {"dim": [{"size": "512"}]}}}, "dtype": {"type": "DT_FLOAT"}}}, {"name": "conv_dw_12_bn_3/moving_variance", "op": "Const", "attr": {"value": {"tensor": {"dtype": "DT_FLOAT", "tensorShape": {"dim": [{"size": "512"}]}}}, "dtype": {"type": "DT_FLOAT"}}}, {"name": "conv_dw_12_bn_3/moving_mean", "op": "Const", "attr": {"value": {"tensor": {"dtype": "DT_FLOAT", "tensorShape": {"dim": [{"size": "512"}]}}}, "dtype": {"type": "DT_FLOAT"}}}, {"name": "conv_pw_12_bn_3/moving_variance", "op": "Const", "attr": {"value": {"tensor": {"dtype": "DT_FLOAT", "tensorShape": {"dim": [{"size": "1024"}]}}}, "dtype": {"type": "DT_FLOAT"}}}, {"name": "conv_pw_12_bn_3/moving_mean", "op": "Const", "attr": {"value": {"tensor": {"dtype": "DT_FLOAT", "tensorShape": {"dim": [{"size": "1024"}]}}}, "dtype": {"type": "DT_FLOAT"}}}, {"name": "conv_dw_13_bn_3/moving_variance", "op": "Const", "attr": {"value": {"tensor": {"dtype": "DT_FLOAT", "tensorShape": {"dim": [{"size": "1024"}]}}}, "dtype": {"type": "DT_FLOAT"}}}, {"name": "conv_dw_13_bn_3/moving_mean", "op": "Const", "attr": {"value": {"tensor": {"dtype": "DT_FLOAT", "tensorShape": {"dim": [{"size": "1024"}]}}}, "dtype": {"type": "DT_FLOAT"}}}, {"name": "conv_pw_13_bn_3/moving_variance", "op": "Const", "attr": {"value": {"tensor": {"dtype": "DT_FLOAT", "tensorShape": {"dim": [{"size": "1024"}]}}}, "dtype": {"type": "DT_FLOAT"}}}, {"name": "conv_pw_13_bn_3/moving_mean", "op": "Const", "attr": {"value": {"tensor": {"dtype": "DT_FLOAT", "tensorShape": {"dim": [{"size": "1024"}]}}}, "dtype": {"type": "DT_FLOAT"}}}, {"name": "conv1_bn/keras_learning_phase", "op": "PlaceholderWithDefault", "input": ["conv1_bn/keras_learning_phase/input"], "attr": {"dtype": {"type": "DT_BOOL"}, "shape": {"shape": {}}}}, {"name": "conv1_pad_3/Pad", "op": "Pad", "input": ["input_4", "conv1_pad_3/Pad/paddings"], "attr": {"T": {"type": "DT_FLOAT"}, "Tpaddings": {"type": "DT_INT32"}}}, {"name": "conv1_bn_3/cond/FusedBatchNorm/Switch_4", "op": "Switch", "input": ["conv1_bn_3/moving_variance", "conv1_bn/keras_learning_phase"], "attr": {"T": {"type": "DT_FLOAT"}}}, {"name": "conv1_bn_3/cond/FusedBatchNorm/Switch_3", "op": "Switch", "input": ["conv1_bn_3/moving_mean", "conv1_bn/keras_learning_phase"], "attr": {"T": {"type": "DT_FLOAT"}}}, {"name": "conv1_bn_3/cond/FusedBatchNorm/Switch_2", "op": "Switch", "input": ["conv1_bn_3/beta", "conv1_bn/keras_learning_phase"], "attr": {"T": {"type": "DT_FLOAT"}}}, {"name": "conv1_bn_3/cond/FusedBatchNorm/Switch_1", "op": "Switch", "input": ["conv1_bn_3/gamma", "conv1_bn/keras_learning_phase"], "attr": {"T": {"type": "DT_FLOAT"}}}, {"name": "conv_dw_1_bn_3/cond/FusedBatchNorm/Switch_4", "op": "Switch", "input": ["conv_dw_1_bn_3/moving_variance", "conv1_bn/keras_learning_phase"], "attr": {"T": {"type": "DT_FLOAT"}}}, {"name": "conv_dw_1_bn_3/cond/FusedBatchNorm/Switch_3", "op": "Switch", "input": ["conv_dw_1_bn_3/moving_mean", "conv1_bn/keras_learning_phase"], "attr": {"T": {"type": "DT_FLOAT"}}}, {"name": "conv_dw_1_bn_3/cond/FusedBatchNorm/Switch_2", "op": "Switch", "input": ["conv_dw_1_bn_3/beta", "conv1_bn/keras_learning_phase"], "attr": {"T": {"type": "DT_FLOAT"}}}, {"name": "conv_dw_1_bn_3/cond/FusedBatchNorm/Switch_1", "op": "Switch", "input": ["conv_dw_1_bn_3/gamma", "conv1_bn/keras_learning_phase"], "attr": {"T": {"type": "DT_FLOAT"}}}, {"name": "conv_pw_1_bn_3/cond/FusedBatchNorm/Switch_4", "op": "Switch", "input": ["conv_pw_1_bn_3/moving_variance", "conv1_bn/keras_learning_phase"], "attr": {"T": {"type": "DT_FLOAT"}}}, {"name": "conv_pw_1_bn_3/cond/FusedBatchNorm/Switch_3", "op": "Switch", "input": ["conv_pw_1_bn_3/moving_mean", "conv1_bn/keras_learning_phase"], "attr": {"T": {"type": "DT_FLOAT"}}}, {"name": "conv_pw_1_bn_3/cond/FusedBatchNorm/Switch_2", "op": "Switch", "input": ["conv_pw_1_bn_3/beta", "conv1_bn/keras_learning_phase"], "attr": {"T": {"type": "DT_FLOAT"}}}, {"name": "conv_pw_1_bn_3/cond/FusedBatchNorm/Switch_1", "op": "Switch", "input": ["conv_pw_1_bn_3/gamma", "conv1_bn/keras_learning_phase"], "attr": {"T": {"type": "DT_FLOAT"}}}, {"name": "conv_dw_2_bn_3/cond/FusedBatchNorm/Switch_4", "op": "Switch", "input": ["conv_dw_2_bn_3/moving_variance", "conv1_bn/keras_learning_phase"], "attr": {"T": {"type": "DT_FLOAT"}}}, {"name": "conv_dw_2_bn_3/cond/FusedBatchNorm/Switch_3", "op": "Switch", "input": ["conv_dw_2_bn_3/moving_mean", "conv1_bn/keras_learning_phase"], "attr": {"T": {"type": "DT_FLOAT"}}}, {"name": "conv_dw_2_bn_3/cond/FusedBatchNorm/Switch_2", "op": "Switch", "input": ["conv_dw_2_bn_3/beta", "conv1_bn/keras_learning_phase"], "attr": {"T": {"type": "DT_FLOAT"}}}, {"name": "conv_dw_2_bn_3/cond/FusedBatchNorm/Switch_1", "op": "Switch", "input": ["conv_dw_2_bn_3/gamma", "conv1_bn/keras_learning_phase"], "attr": {"T": {"type": "DT_FLOAT"}}}, {"name": "conv_pw_2_bn_3/cond/FusedBatchNorm/Switch_4", "op": "Switch", "input": ["conv_pw_2_bn_3/moving_variance", "conv1_bn/keras_learning_phase"], "attr": {"T": {"type": "DT_FLOAT"}}}, {"name": "conv_pw_2_bn_3/cond/FusedBatchNorm/Switch_3", "op": "Switch", "input": ["conv_pw_2_bn_3/moving_mean", "conv1_bn/keras_learning_phase"], "attr": {"T": {"type": "DT_FLOAT"}}}, {"name": "conv_pw_2_bn_3/cond/FusedBatchNorm/Switch_2", "op": "Switch", "input": ["conv_pw_2_bn_3/beta", "conv1_bn/keras_learning_phase"], "attr": {"T": {"type": "DT_FLOAT"}}}, {"name": "conv_pw_2_bn_3/cond/FusedBatchNorm/Switch_1", "op": "Switch", "input": ["conv_pw_2_bn_3/gamma", "conv1_bn/keras_learning_phase"], "attr": {"T": {"type": "DT_FLOAT"}}}, {"name": "conv_dw_3_bn_3/cond/FusedBatchNorm/Switch_4", "op": "Switch", "input": ["conv_dw_3_bn_3/moving_variance", "conv1_bn/keras_learning_phase"], "attr": {"T": {"type": "DT_FLOAT"}}}, {"name": "conv_dw_3_bn_3/cond/FusedBatchNorm/Switch_3", "op": "Switch", "input": ["conv_dw_3_bn_3/moving_mean", "conv1_bn/keras_learning_phase"], "attr": {"T": {"type": "DT_FLOAT"}}}, {"name": "conv_dw_3_bn_3/cond/FusedBatchNorm/Switch_2", "op": "Switch", "input": ["conv_dw_3_bn_3/beta", "conv1_bn/keras_learning_phase"], "attr": {"T": {"type": "DT_FLOAT"}}}, {"name": "conv_dw_3_bn_3/cond/FusedBatchNorm/Switch_1", "op": "Switch", "input": ["conv_dw_3_bn_3/gamma", "conv1_bn/keras_learning_phase"], "attr": {"T": {"type": "DT_FLOAT"}}}, {"name": "conv_pw_3_bn_3/cond/FusedBatchNorm/Switch_4", "op": "Switch", "input": ["conv_pw_3_bn_3/moving_variance", "conv1_bn/keras_learning_phase"], "attr": {"T": {"type": "DT_FLOAT"}}}, {"name": "conv_pw_3_bn_3/cond/FusedBatchNorm/Switch_3", "op": "Switch", "input": ["conv_pw_3_bn_3/moving_mean", "conv1_bn/keras_learning_phase"], "attr": {"T": {"type": "DT_FLOAT"}}}, {"name": "conv_pw_3_bn_3/cond/FusedBatchNorm/Switch_2", "op": "Switch", "input": ["conv_pw_3_bn_3/beta", "conv1_bn/keras_learning_phase"], "attr": {"T": {"type": "DT_FLOAT"}}}, {"name": "conv_pw_3_bn_3/cond/FusedBatchNorm/Switch_1", "op": "Switch", "input": ["conv_pw_3_bn_3/gamma", "conv1_bn/keras_learning_phase"], "attr": {"T": {"type": "DT_FLOAT"}}}, {"name": "conv_dw_4_bn_3/cond/FusedBatchNorm/Switch_4", "op": "Switch", "input": ["conv_dw_4_bn_3/moving_variance", "conv1_bn/keras_learning_phase"], "attr": {"T": {"type": "DT_FLOAT"}}}, {"name": "conv_dw_4_bn_3/cond/FusedBatchNorm/Switch_3", "op": "Switch", "input": ["conv_dw_4_bn_3/moving_mean", "conv1_bn/keras_learning_phase"], "attr": {"T": {"type": "DT_FLOAT"}}}, {"name": "conv_dw_4_bn_3/cond/FusedBatchNorm/Switch_2", "op": "Switch", "input": ["conv_dw_4_bn_3/beta", "conv1_bn/keras_learning_phase"], "attr": {"T": {"type": "DT_FLOAT"}}}, {"name": "conv_dw_4_bn_3/cond/FusedBatchNorm/Switch_1", "op": "Switch", "input": ["conv_dw_4_bn_3/gamma", "conv1_bn/keras_learning_phase"], "attr": {"T": {"type": "DT_FLOAT"}}}, {"name": "conv_pw_4_bn_3/cond/FusedBatchNorm/Switch_4", "op": "Switch", "input": ["conv_pw_4_bn_3/moving_variance", "conv1_bn/keras_learning_phase"], "attr": {"T": {"type": "DT_FLOAT"}}}, {"name": "conv_pw_4_bn_3/cond/FusedBatchNorm/Switch_3", "op": "Switch", "input": ["conv_pw_4_bn_3/moving_mean", "conv1_bn/keras_learning_phase"], "attr": {"T": {"type": "DT_FLOAT"}}}, {"name": "conv_pw_4_bn_3/cond/FusedBatchNorm/Switch_2", "op": "Switch", "input": ["conv_pw_4_bn_3/beta", "conv1_bn/keras_learning_phase"], "attr": {"T": {"type": "DT_FLOAT"}}}, {"name": "conv_pw_4_bn_3/cond/FusedBatchNorm/Switch_1", "op": "Switch", "input": ["conv_pw_4_bn_3/gamma", "conv1_bn/keras_learning_phase"], "attr": {"T": {"type": "DT_FLOAT"}}}, {"name": "conv_dw_5_bn_3/cond/FusedBatchNorm/Switch_4", "op": "Switch", "input": ["conv_dw_5_bn_3/moving_variance", "conv1_bn/keras_learning_phase"], "attr": {"T": {"type": "DT_FLOAT"}}}, {"name": "conv_dw_5_bn_3/cond/FusedBatchNorm/Switch_3", "op": "Switch", "input": ["conv_dw_5_bn_3/moving_mean", "conv1_bn/keras_learning_phase"], "attr": {"T": {"type": "DT_FLOAT"}}}, {"name": "conv_dw_5_bn_3/cond/FusedBatchNorm/Switch_2", "op": "Switch", "input": ["conv_dw_5_bn_3/beta", "conv1_bn/keras_learning_phase"], "attr": {"T": {"type": "DT_FLOAT"}}}, {"name": "conv_dw_5_bn_3/cond/FusedBatchNorm/Switch_1", "op": "Switch", "input": ["conv_dw_5_bn_3/gamma", "conv1_bn/keras_learning_phase"], "attr": {"T": {"type": "DT_FLOAT"}}}, {"name": "conv_pw_5_bn_3/cond/FusedBatchNorm/Switch_4", "op": "Switch", "input": ["conv_pw_5_bn_3/moving_variance", "conv1_bn/keras_learning_phase"], "attr": {"T": {"type": "DT_FLOAT"}}}, {"name": "conv_pw_5_bn_3/cond/FusedBatchNorm/Switch_3", "op": "Switch", "input": ["conv_pw_5_bn_3/moving_mean", "conv1_bn/keras_learning_phase"], "attr": {"T": {"type": "DT_FLOAT"}}}, {"name": "conv_pw_5_bn_3/cond/FusedBatchNorm/Switch_2", "op": "Switch", "input": ["conv_pw_5_bn_3/beta", "conv1_bn/keras_learning_phase"], "attr": {"T": {"type": "DT_FLOAT"}}}, {"name": "conv_pw_5_bn_3/cond/FusedBatchNorm/Switch_1", "op": "Switch", "input": ["conv_pw_5_bn_3/gamma", "conv1_bn/keras_learning_phase"], "attr": {"T": {"type": "DT_FLOAT"}}}, {"name": "conv_dw_6_bn_3/cond/FusedBatchNorm/Switch_4", "op": "Switch", "input": ["conv_dw_6_bn_3/moving_variance", "conv1_bn/keras_learning_phase"], "attr": {"T": {"type": "DT_FLOAT"}}}, {"name": "conv_dw_6_bn_3/cond/FusedBatchNorm/Switch_3", "op": "Switch", "input": ["conv_dw_6_bn_3/moving_mean", "conv1_bn/keras_learning_phase"], "attr": {"T": {"type": "DT_FLOAT"}}}, {"name": "conv_dw_6_bn_3/cond/FusedBatchNorm/Switch_2", "op": "Switch", "input": ["conv_dw_6_bn_3/beta", "conv1_bn/keras_learning_phase"], "attr": {"T": {"type": "DT_FLOAT"}}}, {"name": "conv_dw_6_bn_3/cond/FusedBatchNorm/Switch_1", "op": "Switch", "input": ["conv_dw_6_bn_3/gamma", "conv1_bn/keras_learning_phase"], "attr": {"T": {"type": "DT_FLOAT"}}}, {"name": "conv_pw_6_bn_3/cond/FusedBatchNorm/Switch_4", "op": "Switch", "input": ["conv_pw_6_bn_3/moving_variance", "conv1_bn/keras_learning_phase"], "attr": {"T": {"type": "DT_FLOAT"}}}, {"name": "conv_pw_6_bn_3/cond/FusedBatchNorm/Switch_3", "op": "Switch", "input": ["conv_pw_6_bn_3/moving_mean", "conv1_bn/keras_learning_phase"], "attr": {"T": {"type": "DT_FLOAT"}}}, {"name": "conv_pw_6_bn_3/cond/FusedBatchNorm/Switch_2", "op": "Switch", "input": ["conv_pw_6_bn_3/beta", "conv1_bn/keras_learning_phase"], "attr": {"T": {"type": "DT_FLOAT"}}}, {"name": "conv_pw_6_bn_3/cond/FusedBatchNorm/Switch_1", "op": "Switch", "input": ["conv_pw_6_bn_3/gamma", "conv1_bn/keras_learning_phase"], "attr": {"T": {"type": "DT_FLOAT"}}}, {"name": "conv_dw_7_bn_3/cond/FusedBatchNorm/Switch_4", "op": "Switch", "input": ["conv_dw_7_bn_3/moving_variance", "conv1_bn/keras_learning_phase"], "attr": {"T": {"type": "DT_FLOAT"}}}, {"name": "conv_dw_7_bn_3/cond/FusedBatchNorm/Switch_3", "op": "Switch", "input": ["conv_dw_7_bn_3/moving_mean", "conv1_bn/keras_learning_phase"], "attr": {"T": {"type": "DT_FLOAT"}}}, {"name": "conv_dw_7_bn_3/cond/FusedBatchNorm/Switch_2", "op": "Switch", "input": ["conv_dw_7_bn_3/beta", "conv1_bn/keras_learning_phase"], "attr": {"T": {"type": "DT_FLOAT"}}}, {"name": "conv_dw_7_bn_3/cond/FusedBatchNorm/Switch_1", "op": "Switch", "input": ["conv_dw_7_bn_3/gamma", "conv1_bn/keras_learning_phase"], "attr": {"T": {"type": "DT_FLOAT"}}}, {"name": "conv_pw_7_bn_3/cond/FusedBatchNorm/Switch_4", "op": "Switch", "input": ["conv_pw_7_bn_3/moving_variance", "conv1_bn/keras_learning_phase"], "attr": {"T": {"type": "DT_FLOAT"}}}, {"name": "conv_pw_7_bn_3/cond/FusedBatchNorm/Switch_3", "op": "Switch", "input": ["conv_pw_7_bn_3/moving_mean", "conv1_bn/keras_learning_phase"], "attr": {"T": {"type": "DT_FLOAT"}}}, {"name": "conv_pw_7_bn_3/cond/FusedBatchNorm/Switch_2", "op": "Switch", "input": ["conv_pw_7_bn_3/beta", "conv1_bn/keras_learning_phase"], "attr": {"T": {"type": "DT_FLOAT"}}}, {"name": "conv_pw_7_bn_3/cond/FusedBatchNorm/Switch_1", "op": "Switch", "input": ["conv_pw_7_bn_3/gamma", "conv1_bn/keras_learning_phase"], "attr": {"T": {"type": "DT_FLOAT"}}}, {"name": "conv_dw_8_bn_3/cond/FusedBatchNorm/Switch_4", "op": "Switch", "input": ["conv_dw_8_bn_3/moving_variance", "conv1_bn/keras_learning_phase"], "attr": {"T": {"type": "DT_FLOAT"}}}, {"name": "conv_dw_8_bn_3/cond/FusedBatchNorm/Switch_3", "op": "Switch", "input": ["conv_dw_8_bn_3/moving_mean", "conv1_bn/keras_learning_phase"], "attr": {"T": {"type": "DT_FLOAT"}}}, {"name": "conv_dw_8_bn_3/cond/FusedBatchNorm/Switch_2", "op": "Switch", "input": ["conv_dw_8_bn_3/beta", "conv1_bn/keras_learning_phase"], "attr": {"T": {"type": "DT_FLOAT"}}}, {"name": "conv_dw_8_bn_3/cond/FusedBatchNorm/Switch_1", "op": "Switch", "input": ["conv_dw_8_bn_3/gamma", "conv1_bn/keras_learning_phase"], "attr": {"T": {"type": "DT_FLOAT"}}}, {"name": "conv_pw_8_bn_3/cond/FusedBatchNorm/Switch_4", "op": "Switch", "input": ["conv_pw_8_bn_3/moving_variance", "conv1_bn/keras_learning_phase"], "attr": {"T": {"type": "DT_FLOAT"}}}, {"name": "conv_pw_8_bn_3/cond/FusedBatchNorm/Switch_3", "op": "Switch", "input": ["conv_pw_8_bn_3/moving_mean", "conv1_bn/keras_learning_phase"], "attr": {"T": {"type": "DT_FLOAT"}}}, {"name": "conv_pw_8_bn_3/cond/FusedBatchNorm/Switch_2", "op": "Switch", "input": ["conv_pw_8_bn_3/beta", "conv1_bn/keras_learning_phase"], "attr": {"T": {"type": "DT_FLOAT"}}}, {"name": "conv_pw_8_bn_3/cond/FusedBatchNorm/Switch_1", "op": "Switch", "input": ["conv_pw_8_bn_3/gamma", "conv1_bn/keras_learning_phase"], "attr": {"T": {"type": "DT_FLOAT"}}}, {"name": "conv_dw_9_bn_3/cond/FusedBatchNorm/Switch_4", "op": "Switch", "input": ["conv_dw_9_bn_3/moving_variance", "conv1_bn/keras_learning_phase"], "attr": {"T": {"type": "DT_FLOAT"}}}, {"name": "conv_dw_9_bn_3/cond/FusedBatchNorm/Switch_3", "op": "Switch", "input": ["conv_dw_9_bn_3/moving_mean", "conv1_bn/keras_learning_phase"], "attr": {"T": {"type": "DT_FLOAT"}}}, {"name": "conv_dw_9_bn_3/cond/FusedBatchNorm/Switch_2", "op": "Switch", "input": ["conv_dw_9_bn_3/beta", "conv1_bn/keras_learning_phase"], "attr": {"T": {"type": "DT_FLOAT"}}}, {"name": "conv_dw_9_bn_3/cond/FusedBatchNorm/Switch_1", "op": "Switch", "input": ["conv_dw_9_bn_3/gamma", "conv1_bn/keras_learning_phase"], "attr": {"T": {"type": "DT_FLOAT"}}}, {"name": "conv_pw_9_bn_3/cond/FusedBatchNorm/Switch_4", "op": "Switch", "input": ["conv_pw_9_bn_3/moving_variance", "conv1_bn/keras_learning_phase"], "attr": {"T": {"type": "DT_FLOAT"}}}, {"name": "conv_pw_9_bn_3/cond/FusedBatchNorm/Switch_3", "op": "Switch", "input": ["conv_pw_9_bn_3/moving_mean", "conv1_bn/keras_learning_phase"], "attr": {"T": {"type": "DT_FLOAT"}}}, {"name": "conv_pw_9_bn_3/cond/FusedBatchNorm/Switch_2", "op": "Switch", "input": ["conv_pw_9_bn_3/beta", "conv1_bn/keras_learning_phase"], "attr": {"T": {"type": "DT_FLOAT"}}}, {"name": "conv_pw_9_bn_3/cond/FusedBatchNorm/Switch_1", "op": "Switch", "input": ["conv_pw_9_bn_3/gamma", "conv1_bn/keras_learning_phase"], "attr": {"T": {"type": "DT_FLOAT"}}}, {"name": "conv_dw_10_bn_3/cond/FusedBatchNorm/Switch_4", "op": "Switch", "input": ["conv_dw_10_bn_3/moving_variance", "conv1_bn/keras_learning_phase"], "attr": {"T": {"type": "DT_FLOAT"}}}, {"name": "conv_dw_10_bn_3/cond/FusedBatchNorm/Switch_3", "op": "Switch", "input": ["conv_dw_10_bn_3/moving_mean", "conv1_bn/keras_learning_phase"], "attr": {"T": {"type": "DT_FLOAT"}}}, {"name": "conv_dw_10_bn_3/cond/FusedBatchNorm/Switch_2", "op": "Switch", "input": ["conv_dw_10_bn_3/beta", "conv1_bn/keras_learning_phase"], "attr": {"T": {"type": "DT_FLOAT"}}}, {"name": "conv_dw_10_bn_3/cond/FusedBatchNorm/Switch_1", "op": "Switch", "input": ["conv_dw_10_bn_3/gamma", "conv1_bn/keras_learning_phase"], "attr": {"T": {"type": "DT_FLOAT"}}}, {"name": "conv_pw_10_bn_3/cond/FusedBatchNorm/Switch_4", "op": "Switch", "input": ["conv_pw_10_bn_3/moving_variance", "conv1_bn/keras_learning_phase"], "attr": {"T": {"type": "DT_FLOAT"}}}, {"name": "conv_pw_10_bn_3/cond/FusedBatchNorm/Switch_3", "op": "Switch", "input": ["conv_pw_10_bn_3/moving_mean", "conv1_bn/keras_learning_phase"], "attr": {"T": {"type": "DT_FLOAT"}}}, {"name": "conv_pw_10_bn_3/cond/FusedBatchNorm/Switch_2", "op": "Switch", "input": ["conv_pw_10_bn_3/beta", "conv1_bn/keras_learning_phase"], "attr": {"T": {"type": "DT_FLOAT"}}}, {"name": "conv_pw_10_bn_3/cond/FusedBatchNorm/Switch_1", "op": "Switch", "input": ["conv_pw_10_bn_3/gamma", "conv1_bn/keras_learning_phase"], "attr": {"T": {"type": "DT_FLOAT"}}}, {"name": "conv_dw_11_bn_3/cond/FusedBatchNorm/Switch_4", "op": "Switch", "input": ["conv_dw_11_bn_3/moving_variance", "conv1_bn/keras_learning_phase"], "attr": {"T": {"type": "DT_FLOAT"}}}, {"name": "conv_dw_11_bn_3/cond/FusedBatchNorm/Switch_3", "op": "Switch", "input": ["conv_dw_11_bn_3/moving_mean", "conv1_bn/keras_learning_phase"], "attr": {"T": {"type": "DT_FLOAT"}}}, {"name": "conv_dw_11_bn_3/cond/FusedBatchNorm/Switch_2", "op": "Switch", "input": ["conv_dw_11_bn_3/beta", "conv1_bn/keras_learning_phase"], "attr": {"T": {"type": "DT_FLOAT"}}}, {"name": "conv_dw_11_bn_3/cond/FusedBatchNorm/Switch_1", "op": "Switch", "input": ["conv_dw_11_bn_3/gamma", "conv1_bn/keras_learning_phase"], "attr": {"T": {"type": "DT_FLOAT"}}}, {"name": "conv_pw_11_bn_3/cond/FusedBatchNorm/Switch_4", "op": "Switch", "input": ["conv_pw_11_bn_3/moving_variance", "conv1_bn/keras_learning_phase"], "attr": {"T": {"type": "DT_FLOAT"}}}, {"name": "conv_pw_11_bn_3/cond/FusedBatchNorm/Switch_3", "op": "Switch", "input": ["conv_pw_11_bn_3/moving_mean", "conv1_bn/keras_learning_phase"], "attr": {"T": {"type": "DT_FLOAT"}}}, {"name": "conv_pw_11_bn_3/cond/FusedBatchNorm/Switch_2", "op": "Switch", "input": ["conv_pw_11_bn_3/beta", "conv1_bn/keras_learning_phase"], "attr": {"T": {"type": "DT_FLOAT"}}}, {"name": "conv_pw_11_bn_3/cond/FusedBatchNorm/Switch_1", "op": "Switch", "input": ["conv_pw_11_bn_3/gamma", "conv1_bn/keras_learning_phase"], "attr": {"T": {"type": "DT_FLOAT"}}}, {"name": "conv_dw_12_bn_3/cond/FusedBatchNorm/Switch_4", "op": "Switch", "input": ["conv_dw_12_bn_3/moving_variance", "conv1_bn/keras_learning_phase"], "attr": {"T": {"type": "DT_FLOAT"}}}, {"name": "conv_dw_12_bn_3/cond/FusedBatchNorm/Switch_3", "op": "Switch", "input": ["conv_dw_12_bn_3/moving_mean", "conv1_bn/keras_learning_phase"], "attr": {"T": {"type": "DT_FLOAT"}}}, {"name": "conv_dw_12_bn_3/cond/FusedBatchNorm/Switch_2", "op": "Switch", "input": ["conv_dw_12_bn_3/beta", "conv1_bn/keras_learning_phase"], "attr": {"T": {"type": "DT_FLOAT"}}}, {"name": "conv_dw_12_bn_3/cond/FusedBatchNorm/Switch_1", "op": "Switch", "input": ["conv_dw_12_bn_3/gamma", "conv1_bn/keras_learning_phase"], "attr": {"T": {"type": "DT_FLOAT"}}}, {"name": "conv_pw_12_bn_3/cond/FusedBatchNorm/Switch_4", "op": "Switch", "input": ["conv_pw_12_bn_3/moving_variance", "conv1_bn/keras_learning_phase"], "attr": {"T": {"type": "DT_FLOAT"}}}, {"name": "conv_pw_12_bn_3/cond/FusedBatchNorm/Switch_3", "op": "Switch", "input": ["conv_pw_12_bn_3/moving_mean", "conv1_bn/keras_learning_phase"], "attr": {"T": {"type": "DT_FLOAT"}}}, {"name": "conv_pw_12_bn_3/cond/FusedBatchNorm/Switch_2", "op": "Switch", "input": ["conv_pw_12_bn_3/beta", "conv1_bn/keras_learning_phase"], "attr": {"T": {"type": "DT_FLOAT"}}}, {"name": "conv_pw_12_bn_3/cond/FusedBatchNorm/Switch_1", "op": "Switch", "input": ["conv_pw_12_bn_3/gamma", "conv1_bn/keras_learning_phase"], "attr": {"T": {"type": "DT_FLOAT"}}}, {"name": "conv_dw_13_bn_3/cond/FusedBatchNorm/Switch_4", "op": "Switch", "input": ["conv_dw_13_bn_3/moving_variance", "conv1_bn/keras_learning_phase"], "attr": {"T": {"type": "DT_FLOAT"}}}, {"name": "conv_dw_13_bn_3/cond/FusedBatchNorm/Switch_3", "op": "Switch", "input": ["conv_dw_13_bn_3/moving_mean", "conv1_bn/keras_learning_phase"], "attr": {"T": {"type": "DT_FLOAT"}}}, {"name": "conv_dw_13_bn_3/cond/FusedBatchNorm/Switch_2", "op": "Switch", "input": ["conv_dw_13_bn_3/beta", "conv1_bn/keras_learning_phase"], "attr": {"T": {"type": "DT_FLOAT"}}}, {"name": "conv_dw_13_bn_3/cond/FusedBatchNorm/Switch_1", "op": "Switch", "input": ["conv_dw_13_bn_3/gamma", "conv1_bn/keras_learning_phase"], "attr": {"T": {"type": "DT_FLOAT"}}}, {"name": "conv_pw_13_bn_3/cond/FusedBatchNorm/Switch_4", "op": "Switch", "input": ["conv_pw_13_bn_3/moving_variance", "conv1_bn/keras_learning_phase"], "attr": {"T": {"type": "DT_FLOAT"}}}, {"name": "conv_pw_13_bn_3/cond/FusedBatchNorm/Switch_3", "op": "Switch", "input": ["conv_pw_13_bn_3/moving_mean", "conv1_bn/keras_learning_phase"], "attr": {"T": {"type": "DT_FLOAT"}}}, {"name": "conv_pw_13_bn_3/cond/FusedBatchNorm/Switch_2", "op": "Switch", "input": ["conv_pw_13_bn_3/beta", "conv1_bn/keras_learning_phase"], "attr": {"T": {"type": "DT_FLOAT"}}}, {"name": "conv_pw_13_bn_3/cond/FusedBatchNorm/Switch_1", "op": "Switch", "input": ["conv_pw_13_bn_3/gamma", "conv1_bn/keras_learning_phase"], "attr": {"T": {"type": "DT_FLOAT"}}}, {"name": "conv1_3/convolution", "op": "Conv2D", "input": ["conv1_pad_3/Pad", "conv1_3/kernel"], "attr": {"dilations": {"list": {"i": ["1", "1", "1", "1"]}}, "T": {"type": "DT_FLOAT"}, "strides": {"list": {"i": ["1", "2", "2", "1"]}}, "data_format": {"s": "TkhXQw=="}, "use_cudnn_on_gpu": {"b": true}, "padding": {"s": "VkFMSUQ="}}}, {"name": "conv1_bn_3/FusedBatchNorm", "op": "FusedBatchNorm", "input": ["conv1_3/convolution", "conv1_bn_3/gamma", "conv1_bn_3/beta", "conv1_bn_3/Const_4", "conv1_bn_3/Const_4"], "attr": {"epsilon": {"f": 0.0010000000474974513}, "T": {"type": "DT_FLOAT"}, "data_format": {"s": "TkhXQw=="}, "is_training": {"b": true}}}, {"name": "conv1_bn_3/cond/FusedBatchNorm/Switch", "op": "Switch", "input": ["conv1_3/convolution", "conv1_bn/keras_learning_phase"], "attr": {"T": {"type": "DT_FLOAT"}}}, {"name": "conv1_bn_3/cond/Switch_1", "op": "Switch", "input": ["conv1_bn_3/FusedBatchNorm", "conv1_bn/keras_learning_phase"], "attr": {"T": {"type": "DT_FLOAT"}}}, {"name": "conv1_bn_3/cond/FusedBatchNorm", "op": "FusedBatchNorm", "input": ["conv1_bn_3/cond/FusedBatchNorm/Switch", "conv1_bn_3/cond/FusedBatchNorm/Switch_1", "conv1_bn_3/cond/FusedBatchNorm/Switch_2", "conv1_bn_3/cond/FusedBatchNorm/Switch_3", "conv1_bn_3/cond/FusedBatchNorm/Switch_4"], "attr": {"data_format": {"s": "TkhXQw=="}, "is_training": {"b": false}, "epsilon": {"f": 0.0010000000474974513}, "T": {"type": "DT_FLOAT"}}}, {"name": "conv1_bn_3/cond/Merge", "op": "Merge", "input": ["conv1_bn_3/cond/FusedBatchNorm", "conv1_bn_3/cond/Switch_1:1"], "attr": {"T": {"type": "DT_FLOAT"}, "N": {"i": "2"}}}, {"name": "conv1_relu_3/Relu6", "op": "Relu6", "input": ["conv1_bn_3/cond/Merge"], "attr": {"T": {"type": "DT_FLOAT"}}}, {"name": "conv_dw_1_3/depthwise", "op": "DepthwiseConv2dNative", "input": ["conv1_relu_3/Relu6", "conv_dw_1_3/depthwise_kernel"], "attr": {"padding": {"s": "U0FNRQ=="}, "dilations": {"list": {"i": ["1", "1", "1", "1"]}}, "T": {"type": "DT_FLOAT"}, "strides": {"list": {"i": ["1", "1", "1", "1"]}}, "data_format": {"s": "TkhXQw=="}}}, {"name": "conv_dw_1_bn_3/FusedBatchNorm", "op": "FusedBatchNorm", "input": ["conv_dw_1_3/depthwise", "conv_dw_1_bn_3/gamma", "conv_dw_1_bn_3/beta", "conv1_bn_3/Const_4", "conv1_bn_3/Const_4"], "attr": {"epsilon": {"f": 0.0010000000474974513}, "T": {"type": "DT_FLOAT"}, "data_format": {"s": "TkhXQw=="}, "is_training": {"b": true}}}, {"name": "conv_dw_1_bn_3/cond/FusedBatchNorm/Switch", "op": "Switch", "input": ["conv_dw_1_3/depthwise", "conv1_bn/keras_learning_phase"], "attr": {"T": {"type": "DT_FLOAT"}}}, {"name": "conv_dw_1_bn_3/cond/Switch_1", "op": "Switch", "input": ["conv_dw_1_bn_3/FusedBatchNorm", "conv1_bn/keras_learning_phase"], "attr": {"T": {"type": "DT_FLOAT"}}}, {"name": "conv_dw_1_bn_3/cond/FusedBatchNorm", "op": "FusedBatchNorm", "input": ["conv_dw_1_bn_3/cond/FusedBatchNorm/Switch", "conv_dw_1_bn_3/cond/FusedBatchNorm/Switch_1", "conv_dw_1_bn_3/cond/FusedBatchNorm/Switch_2", "conv_dw_1_bn_3/cond/FusedBatchNorm/Switch_3", "conv_dw_1_bn_3/cond/FusedBatchNorm/Switch_4"], "attr": {"is_training": {"b": false}, "epsilon": {"f": 0.0010000000474974513}, "T": {"type": "DT_FLOAT"}, "data_format": {"s": "TkhXQw=="}}}, {"name": "conv_dw_1_bn_3/cond/Merge", "op": "Merge", "input": ["conv_dw_1_bn_3/cond/FusedBatchNorm", "conv_dw_1_bn_3/cond/Switch_1:1"], "attr": {"T": {"type": "DT_FLOAT"}, "N": {"i": "2"}}}, {"name": "conv_dw_1_relu_3/Relu6", "op": "Relu6", "input": ["conv_dw_1_bn_3/cond/Merge"], "attr": {"T": {"type": "DT_FLOAT"}}}, {"name": "conv_pw_1_3/convolution", "op": "Conv2D", "input": ["conv_dw_1_relu_3/Relu6", "conv_pw_1_3/kernel"], "attr": {"T": {"type": "DT_FLOAT"}, "data_format": {"s": "TkhXQw=="}, "strides": {"list": {"i": ["1", "1", "1", "1"]}}, "use_cudnn_on_gpu": {"b": true}, "padding": {"s": "U0FNRQ=="}, "dilations": {"list": {"i": ["1", "1", "1", "1"]}}}}, {"name": "conv_pw_1_bn_3/FusedBatchNorm", "op": "FusedBatchNorm", "input": ["conv_pw_1_3/convolution", "conv_pw_1_bn_3/gamma", "conv_pw_1_bn_3/beta", "conv1_bn_3/Const_4", "conv1_bn_3/Const_4"], "attr": {"epsilon": {"f": 0.0010000000474974513}, "T": {"type": "DT_FLOAT"}, "data_format": {"s": "TkhXQw=="}, "is_training": {"b": true}}}, {"name": "conv_pw_1_bn_3/cond/FusedBatchNorm/Switch", "op": "Switch", "input": ["conv_pw_1_3/convolution", "conv1_bn/keras_learning_phase"], "attr": {"T": {"type": "DT_FLOAT"}}}, {"name": "conv_pw_1_bn_3/cond/Switch_1", "op": "Switch", "input": ["conv_pw_1_bn_3/FusedBatchNorm", "conv1_bn/keras_learning_phase"], "attr": {"T": {"type": "DT_FLOAT"}}}, {"name": "conv_pw_1_bn_3/cond/FusedBatchNorm", "op": "FusedBatchNorm", "input": ["conv_pw_1_bn_3/cond/FusedBatchNorm/Switch", "conv_pw_1_bn_3/cond/FusedBatchNorm/Switch_1", "conv_pw_1_bn_3/cond/FusedBatchNorm/Switch_2", "conv_pw_1_bn_3/cond/FusedBatchNorm/Switch_3", "conv_pw_1_bn_3/cond/FusedBatchNorm/Switch_4"], "attr": {"data_format": {"s": "TkhXQw=="}, "is_training": {"b": false}, "epsilon": {"f": 0.0010000000474974513}, "T": {"type": "DT_FLOAT"}}}, {"name": "conv_pw_1_bn_3/cond/Merge", "op": "Merge", "input": ["conv_pw_1_bn_3/cond/FusedBatchNorm", "conv_pw_1_bn_3/cond/Switch_1:1"], "attr": {"T": {"type": "DT_FLOAT"}, "N": {"i": "2"}}}, {"name": "conv_pw_1_relu_3/Relu6", "op": "Relu6", "input": ["conv_pw_1_bn_3/cond/Merge"], "attr": {"T": {"type": "DT_FLOAT"}}}, {"name": "conv_pad_2_3/Pad", "op": "Pad", "input": ["conv_pw_1_relu_3/Relu6", "conv1_pad_3/Pad/paddings"], "attr": {"T": {"type": "DT_FLOAT"}, "Tpaddings": {"type": "DT_INT32"}}}, {"name": "conv_dw_2_3/depthwise", "op": "DepthwiseConv2dNative", "input": ["conv_pad_2_3/Pad", "conv_dw_2_3/depthwise_kernel"], "attr": {"padding": {"s": "VkFMSUQ="}, "dilations": {"list": {"i": ["1", "1", "1", "1"]}}, "T": {"type": "DT_FLOAT"}, "strides": {"list": {"i": ["1", "2", "2", "1"]}}, "data_format": {"s": "TkhXQw=="}}}, {"name": "conv_dw_2_bn_3/FusedBatchNorm", "op": "FusedBatchNorm", "input": ["conv_dw_2_3/depthwise", "conv_dw_2_bn_3/gamma", "conv_dw_2_bn_3/beta", "conv1_bn_3/Const_4", "conv1_bn_3/Const_4"], "attr": {"epsilon": {"f": 0.0010000000474974513}, "T": {"type": "DT_FLOAT"}, "data_format": {"s": "TkhXQw=="}, "is_training": {"b": true}}}, {"name": "conv_dw_2_bn_3/cond/FusedBatchNorm/Switch", "op": "Switch", "input": ["conv_dw_2_3/depthwise", "conv1_bn/keras_learning_phase"], "attr": {"T": {"type": "DT_FLOAT"}}}, {"name": "conv_dw_2_bn_3/cond/Switch_1", "op": "Switch", "input": ["conv_dw_2_bn_3/FusedBatchNorm", "conv1_bn/keras_learning_phase"], "attr": {"T": {"type": "DT_FLOAT"}}}, {"name": "conv_dw_2_bn_3/cond/FusedBatchNorm", "op": "FusedBatchNorm", "input": ["conv_dw_2_bn_3/cond/FusedBatchNorm/Switch", "conv_dw_2_bn_3/cond/FusedBatchNorm/Switch_1", "conv_dw_2_bn_3/cond/FusedBatchNorm/Switch_2", "conv_dw_2_bn_3/cond/FusedBatchNorm/Switch_3", "conv_dw_2_bn_3/cond/FusedBatchNorm/Switch_4"], "attr": {"epsilon": {"f": 0.0010000000474974513}, "T": {"type": "DT_FLOAT"}, "data_format": {"s": "TkhXQw=="}, "is_training": {"b": false}}}, {"name": "conv_dw_2_bn_3/cond/Merge", "op": "Merge", "input": ["conv_dw_2_bn_3/cond/FusedBatchNorm", "conv_dw_2_bn_3/cond/Switch_1:1"], "attr": {"N": {"i": "2"}, "T": {"type": "DT_FLOAT"}}}, {"name": "conv_dw_2_relu_3/Relu6", "op": "Relu6", "input": ["conv_dw_2_bn_3/cond/Merge"], "attr": {"T": {"type": "DT_FLOAT"}}}, {"name": "conv_pw_2_3/convolution", "op": "Conv2D", "input": ["conv_dw_2_relu_3/Relu6", "conv_pw_2_3/kernel"], "attr": {"padding": {"s": "U0FNRQ=="}, "dilations": {"list": {"i": ["1", "1", "1", "1"]}}, "T": {"type": "DT_FLOAT"}, "strides": {"list": {"i": ["1", "1", "1", "1"]}}, "data_format": {"s": "TkhXQw=="}, "use_cudnn_on_gpu": {"b": true}}}, {"name": "conv_pw_2_bn_3/FusedBatchNorm", "op": "FusedBatchNorm", "input": ["conv_pw_2_3/convolution", "conv_pw_2_bn_3/gamma", "conv_pw_2_bn_3/beta", "conv1_bn_3/Const_4", "conv1_bn_3/Const_4"], "attr": {"data_format": {"s": "TkhXQw=="}, "is_training": {"b": true}, "epsilon": {"f": 0.0010000000474974513}, "T": {"type": "DT_FLOAT"}}}, {"name": "conv_pw_2_bn_3/cond/FusedBatchNorm/Switch", "op": "Switch", "input": ["conv_pw_2_3/convolution", "conv1_bn/keras_learning_phase"], "attr": {"T": {"type": "DT_FLOAT"}}}, {"name": "conv_pw_2_bn_3/cond/Switch_1", "op": "Switch", "input": ["conv_pw_2_bn_3/FusedBatchNorm", "conv1_bn/keras_learning_phase"], "attr": {"T": {"type": "DT_FLOAT"}}}, {"name": "conv_pw_2_bn_3/cond/FusedBatchNorm", "op": "FusedBatchNorm", "input": ["conv_pw_2_bn_3/cond/FusedBatchNorm/Switch", "conv_pw_2_bn_3/cond/FusedBatchNorm/Switch_1", "conv_pw_2_bn_3/cond/FusedBatchNorm/Switch_2", "conv_pw_2_bn_3/cond/FusedBatchNorm/Switch_3", "conv_pw_2_bn_3/cond/FusedBatchNorm/Switch_4"], "attr": {"epsilon": {"f": 0.0010000000474974513}, "T": {"type": "DT_FLOAT"}, "data_format": {"s": "TkhXQw=="}, "is_training": {"b": false}}}, {"name": "conv_pw_2_bn_3/cond/Merge", "op": "Merge", "input": ["conv_pw_2_bn_3/cond/FusedBatchNorm", "conv_pw_2_bn_3/cond/Switch_1:1"], "attr": {"T": {"type": "DT_FLOAT"}, "N": {"i": "2"}}}, {"name": "conv_pw_2_relu_3/Relu6", "op": "Relu6", "input": ["conv_pw_2_bn_3/cond/Merge"], "attr": {"T": {"type": "DT_FLOAT"}}}, {"name": "conv_dw_3_3/depthwise", "op": "DepthwiseConv2dNative", "input": ["conv_pw_2_relu_3/Relu6", "conv_dw_3_3/depthwise_kernel"], "attr": {"strides": {"list": {"i": ["1", "1", "1", "1"]}}, "data_format": {"s": "TkhXQw=="}, "padding": {"s": "U0FNRQ=="}, "dilations": {"list": {"i": ["1", "1", "1", "1"]}}, "T": {"type": "DT_FLOAT"}}}, {"name": "conv_dw_3_bn_3/FusedBatchNorm", "op": "FusedBatchNorm", "input": ["conv_dw_3_3/depthwise", "conv_dw_3_bn_3/gamma", "conv_dw_3_bn_3/beta", "conv1_bn_3/Const_4", "conv1_bn_3/Const_4"], "attr": {"epsilon": {"f": 0.0010000000474974513}, "T": {"type": "DT_FLOAT"}, "data_format": {"s": "TkhXQw=="}, "is_training": {"b": true}}}, {"name": "conv_dw_3_bn_3/cond/FusedBatchNorm/Switch", "op": "Switch", "input": ["conv_dw_3_3/depthwise", "conv1_bn/keras_learning_phase"], "attr": {"T": {"type": "DT_FLOAT"}}}, {"name": "conv_dw_3_bn_3/cond/Switch_1", "op": "Switch", "input": ["conv_dw_3_bn_3/FusedBatchNorm", "conv1_bn/keras_learning_phase"], "attr": {"T": {"type": "DT_FLOAT"}}}, {"name": "conv_dw_3_bn_3/cond/FusedBatchNorm", "op": "FusedBatchNorm", "input": ["conv_dw_3_bn_3/cond/FusedBatchNorm/Switch", "conv_dw_3_bn_3/cond/FusedBatchNorm/Switch_1", "conv_dw_3_bn_3/cond/FusedBatchNorm/Switch_2", "conv_dw_3_bn_3/cond/FusedBatchNorm/Switch_3", "conv_dw_3_bn_3/cond/FusedBatchNorm/Switch_4"], "attr": {"data_format": {"s": "TkhXQw=="}, "is_training": {"b": false}, "epsilon": {"f": 0.0010000000474974513}, "T": {"type": "DT_FLOAT"}}}, {"name": "conv_dw_3_bn_3/cond/Merge", "op": "Merge", "input": ["conv_dw_3_bn_3/cond/FusedBatchNorm", "conv_dw_3_bn_3/cond/Switch_1:1"], "attr": {"N": {"i": "2"}, "T": {"type": "DT_FLOAT"}}}, {"name": "conv_dw_3_relu_3/Relu6", "op": "Relu6", "input": ["conv_dw_3_bn_3/cond/Merge"], "attr": {"T": {"type": "DT_FLOAT"}}}, {"name": "conv_pw_3_3/convolution", "op": "Conv2D", "input": ["conv_dw_3_relu_3/Relu6", "conv_pw_3_3/kernel"], "attr": {"padding": {"s": "U0FNRQ=="}, "dilations": {"list": {"i": ["1", "1", "1", "1"]}}, "T": {"type": "DT_FLOAT"}, "data_format": {"s": "TkhXQw=="}, "strides": {"list": {"i": ["1", "1", "1", "1"]}}, "use_cudnn_on_gpu": {"b": true}}}, {"name": "conv_pw_3_bn_3/FusedBatchNorm", "op": "FusedBatchNorm", "input": ["conv_pw_3_3/convolution", "conv_pw_3_bn_3/gamma", "conv_pw_3_bn_3/beta", "conv1_bn_3/Const_4", "conv1_bn_3/Const_4"], "attr": {"is_training": {"b": true}, "epsilon": {"f": 0.0010000000474974513}, "T": {"type": "DT_FLOAT"}, "data_format": {"s": "TkhXQw=="}}}, {"name": "conv_pw_3_bn_3/cond/FusedBatchNorm/Switch", "op": "Switch", "input": ["conv_pw_3_3/convolution", "conv1_bn/keras_learning_phase"], "attr": {"T": {"type": "DT_FLOAT"}}}, {"name": "conv_pw_3_bn_3/cond/Switch_1", "op": "Switch", "input": ["conv_pw_3_bn_3/FusedBatchNorm", "conv1_bn/keras_learning_phase"], "attr": {"T": {"type": "DT_FLOAT"}}}, {"name": "conv_pw_3_bn_3/cond/FusedBatchNorm", "op": "FusedBatchNorm", "input": ["conv_pw_3_bn_3/cond/FusedBatchNorm/Switch", "conv_pw_3_bn_3/cond/FusedBatchNorm/Switch_1", "conv_pw_3_bn_3/cond/FusedBatchNorm/Switch_2", "conv_pw_3_bn_3/cond/FusedBatchNorm/Switch_3", "conv_pw_3_bn_3/cond/FusedBatchNorm/Switch_4"], "attr": {"epsilon": {"f": 0.0010000000474974513}, "T": {"type": "DT_FLOAT"}, "data_format": {"s": "TkhXQw=="}, "is_training": {"b": false}}}, {"name": "conv_pw_3_bn_3/cond/Merge", "op": "Merge", "input": ["conv_pw_3_bn_3/cond/FusedBatchNorm", "conv_pw_3_bn_3/cond/Switch_1:1"], "attr": {"T": {"type": "DT_FLOAT"}, "N": {"i": "2"}}}, {"name": "conv_pw_3_relu_3/Relu6", "op": "Relu6", "input": ["conv_pw_3_bn_3/cond/Merge"], "attr": {"T": {"type": "DT_FLOAT"}}}, {"name": "conv_pad_4_3/Pad", "op": "Pad", "input": ["conv_pw_3_relu_3/Relu6", "conv1_pad_3/Pad/paddings"], "attr": {"T": {"type": "DT_FLOAT"}, "Tpaddings": {"type": "DT_INT32"}}}, {"name": "conv_dw_4_3/depthwise", "op": "DepthwiseConv2dNative", "input": ["conv_pad_4_3/Pad", "conv_dw_4_3/depthwise_kernel"], "attr": {"T": {"type": "DT_FLOAT"}, "strides": {"list": {"i": ["1", "2", "2", "1"]}}, "data_format": {"s": "TkhXQw=="}, "padding": {"s": "VkFMSUQ="}, "dilations": {"list": {"i": ["1", "1", "1", "1"]}}}}, {"name": "conv_dw_4_bn_3/FusedBatchNorm", "op": "FusedBatchNorm", "input": ["conv_dw_4_3/depthwise", "conv_dw_4_bn_3/gamma", "conv_dw_4_bn_3/beta", "conv1_bn_3/Const_4", "conv1_bn_3/Const_4"], "attr": {"epsilon": {"f": 0.0010000000474974513}, "T": {"type": "DT_FLOAT"}, "data_format": {"s": "TkhXQw=="}, "is_training": {"b": true}}}, {"name": "conv_dw_4_bn_3/cond/FusedBatchNorm/Switch", "op": "Switch", "input": ["conv_dw_4_3/depthwise", "conv1_bn/keras_learning_phase"], "attr": {"T": {"type": "DT_FLOAT"}}}, {"name": "conv_dw_4_bn_3/cond/Switch_1", "op": "Switch", "input": ["conv_dw_4_bn_3/FusedBatchNorm", "conv1_bn/keras_learning_phase"], "attr": {"T": {"type": "DT_FLOAT"}}}, {"name": "conv_dw_4_bn_3/cond/FusedBatchNorm", "op": "FusedBatchNorm", "input": ["conv_dw_4_bn_3/cond/FusedBatchNorm/Switch", "conv_dw_4_bn_3/cond/FusedBatchNorm/Switch_1", "conv_dw_4_bn_3/cond/FusedBatchNorm/Switch_2", "conv_dw_4_bn_3/cond/FusedBatchNorm/Switch_3", "conv_dw_4_bn_3/cond/FusedBatchNorm/Switch_4"], "attr": {"T": {"type": "DT_FLOAT"}, "data_format": {"s": "TkhXQw=="}, "is_training": {"b": false}, "epsilon": {"f": 0.0010000000474974513}}}, {"name": "conv_dw_4_bn_3/cond/Merge", "op": "Merge", "input": ["conv_dw_4_bn_3/cond/FusedBatchNorm", "conv_dw_4_bn_3/cond/Switch_1:1"], "attr": {"T": {"type": "DT_FLOAT"}, "N": {"i": "2"}}}, {"name": "conv_dw_4_relu_3/Relu6", "op": "Relu6", "input": ["conv_dw_4_bn_3/cond/Merge"], "attr": {"T": {"type": "DT_FLOAT"}}}, {"name": "conv_pw_4_3/convolution", "op": "Conv2D", "input": ["conv_dw_4_relu_3/Relu6", "conv_pw_4_3/kernel"], "attr": {"dilations": {"list": {"i": ["1", "1", "1", "1"]}}, "T": {"type": "DT_FLOAT"}, "strides": {"list": {"i": ["1", "1", "1", "1"]}}, "data_format": {"s": "TkhXQw=="}, "use_cudnn_on_gpu": {"b": true}, "padding": {"s": "U0FNRQ=="}}}, {"name": "conv_pw_4_bn_3/FusedBatchNorm", "op": "FusedBatchNorm", "input": ["conv_pw_4_3/convolution", "conv_pw_4_bn_3/gamma", "conv_pw_4_bn_3/beta", "conv1_bn_3/Const_4", "conv1_bn_3/Const_4"], "attr": {"epsilon": {"f": 0.0010000000474974513}, "T": {"type": "DT_FLOAT"}, "data_format": {"s": "TkhXQw=="}, "is_training": {"b": true}}}, {"name": "conv_pw_4_bn_3/cond/FusedBatchNorm/Switch", "op": "Switch", "input": ["conv_pw_4_3/convolution", "conv1_bn/keras_learning_phase"], "attr": {"T": {"type": "DT_FLOAT"}}}, {"name": "conv_pw_4_bn_3/cond/Switch_1", "op": "Switch", "input": ["conv_pw_4_bn_3/FusedBatchNorm", "conv1_bn/keras_learning_phase"], "attr": {"T": {"type": "DT_FLOAT"}}}, {"name": "conv_pw_4_bn_3/cond/FusedBatchNorm", "op": "FusedBatchNorm", "input": ["conv_pw_4_bn_3/cond/FusedBatchNorm/Switch", "conv_pw_4_bn_3/cond/FusedBatchNorm/Switch_1", "conv_pw_4_bn_3/cond/FusedBatchNorm/Switch_2", "conv_pw_4_bn_3/cond/FusedBatchNorm/Switch_3", "conv_pw_4_bn_3/cond/FusedBatchNorm/Switch_4"], "attr": {"data_format": {"s": "TkhXQw=="}, "is_training": {"b": false}, "epsilon": {"f": 0.0010000000474974513}, "T": {"type": "DT_FLOAT"}}}, {"name": "conv_pw_4_bn_3/cond/Merge", "op": "Merge", "input": ["conv_pw_4_bn_3/cond/FusedBatchNorm", "conv_pw_4_bn_3/cond/Switch_1:1"], "attr": {"N": {"i": "2"}, "T": {"type": "DT_FLOAT"}}}, {"name": "conv_pw_4_relu_3/Relu6", "op": "Relu6", "input": ["conv_pw_4_bn_3/cond/Merge"], "attr": {"T": {"type": "DT_FLOAT"}}}, {"name": "conv_dw_5_3/depthwise", "op": "DepthwiseConv2dNative", "input": ["conv_pw_4_relu_3/Relu6", "conv_dw_5_3/depthwise_kernel"], "attr": {"padding": {"s": "U0FNRQ=="}, "dilations": {"list": {"i": ["1", "1", "1", "1"]}}, "T": {"type": "DT_FLOAT"}, "strides": {"list": {"i": ["1", "1", "1", "1"]}}, "data_format": {"s": "TkhXQw=="}}}, {"name": "conv_dw_5_bn_3/FusedBatchNorm", "op": "FusedBatchNorm", "input": ["conv_dw_5_3/depthwise", "conv_dw_5_bn_3/gamma", "conv_dw_5_bn_3/beta", "conv1_bn_3/Const_4", "conv1_bn_3/Const_4"], "attr": {"epsilon": {"f": 0.0010000000474974513}, "T": {"type": "DT_FLOAT"}, "data_format": {"s": "TkhXQw=="}, "is_training": {"b": true}}}, {"name": "conv_dw_5_bn_3/cond/FusedBatchNorm/Switch", "op": "Switch", "input": ["conv_dw_5_3/depthwise", "conv1_bn/keras_learning_phase"], "attr": {"T": {"type": "DT_FLOAT"}}}, {"name": "conv_dw_5_bn_3/cond/Switch_1", "op": "Switch", "input": ["conv_dw_5_bn_3/FusedBatchNorm", "conv1_bn/keras_learning_phase"], "attr": {"T": {"type": "DT_FLOAT"}}}, {"name": "conv_dw_5_bn_3/cond/FusedBatchNorm", "op": "FusedBatchNorm", "input": ["conv_dw_5_bn_3/cond/FusedBatchNorm/Switch", "conv_dw_5_bn_3/cond/FusedBatchNorm/Switch_1", "conv_dw_5_bn_3/cond/FusedBatchNorm/Switch_2", "conv_dw_5_bn_3/cond/FusedBatchNorm/Switch_3", "conv_dw_5_bn_3/cond/FusedBatchNorm/Switch_4"], "attr": {"T": {"type": "DT_FLOAT"}, "data_format": {"s": "TkhXQw=="}, "is_training": {"b": false}, "epsilon": {"f": 0.0010000000474974513}}}, {"name": "conv_dw_5_bn_3/cond/Merge", "op": "Merge", "input": ["conv_dw_5_bn_3/cond/FusedBatchNorm", "conv_dw_5_bn_3/cond/Switch_1:1"], "attr": {"N": {"i": "2"}, "T": {"type": "DT_FLOAT"}}}, {"name": "conv_dw_5_relu_3/Relu6", "op": "Relu6", "input": ["conv_dw_5_bn_3/cond/Merge"], "attr": {"T": {"type": "DT_FLOAT"}}}, {"name": "conv_pw_5_3/convolution", "op": "Conv2D", "input": ["conv_dw_5_relu_3/Relu6", "conv_pw_5_3/kernel"], "attr": {"dilations": {"list": {"i": ["1", "1", "1", "1"]}}, "T": {"type": "DT_FLOAT"}, "strides": {"list": {"i": ["1", "1", "1", "1"]}}, "data_format": {"s": "TkhXQw=="}, "use_cudnn_on_gpu": {"b": true}, "padding": {"s": "U0FNRQ=="}}}, {"name": "conv_pw_5_bn_3/FusedBatchNorm", "op": "FusedBatchNorm", "input": ["conv_pw_5_3/convolution", "conv_pw_5_bn_3/gamma", "conv_pw_5_bn_3/beta", "conv1_bn_3/Const_4", "conv1_bn_3/Const_4"], "attr": {"data_format": {"s": "TkhXQw=="}, "is_training": {"b": true}, "epsilon": {"f": 0.0010000000474974513}, "T": {"type": "DT_FLOAT"}}}, {"name": "conv_pw_5_bn_3/cond/FusedBatchNorm/Switch", "op": "Switch", "input": ["conv_pw_5_3/convolution", "conv1_bn/keras_learning_phase"], "attr": {"T": {"type": "DT_FLOAT"}}}, {"name": "conv_pw_5_bn_3/cond/Switch_1", "op": "Switch", "input": ["conv_pw_5_bn_3/FusedBatchNorm", "conv1_bn/keras_learning_phase"], "attr": {"T": {"type": "DT_FLOAT"}}}, {"name": "conv_pw_5_bn_3/cond/FusedBatchNorm", "op": "FusedBatchNorm", "input": ["conv_pw_5_bn_3/cond/FusedBatchNorm/Switch", "conv_pw_5_bn_3/cond/FusedBatchNorm/Switch_1", "conv_pw_5_bn_3/cond/FusedBatchNorm/Switch_2", "conv_pw_5_bn_3/cond/FusedBatchNorm/Switch_3", "conv_pw_5_bn_3/cond/FusedBatchNorm/Switch_4"], "attr": {"epsilon": {"f": 0.0010000000474974513}, "T": {"type": "DT_FLOAT"}, "data_format": {"s": "TkhXQw=="}, "is_training": {"b": false}}}, {"name": "conv_pw_5_bn_3/cond/Merge", "op": "Merge", "input": ["conv_pw_5_bn_3/cond/FusedBatchNorm", "conv_pw_5_bn_3/cond/Switch_1:1"], "attr": {"T": {"type": "DT_FLOAT"}, "N": {"i": "2"}}}, {"name": "conv_pw_5_relu_3/Relu6", "op": "Relu6", "input": ["conv_pw_5_bn_3/cond/Merge"], "attr": {"T": {"type": "DT_FLOAT"}}}, {"name": "conv_pad_6_3/Pad", "op": "Pad", "input": ["conv_pw_5_relu_3/Relu6", "conv1_pad_3/Pad/paddings"], "attr": {"T": {"type": "DT_FLOAT"}, "Tpaddings": {"type": "DT_INT32"}}}, {"name": "conv_dw_6_3/depthwise", "op": "DepthwiseConv2dNative", "input": ["conv_pad_6_3/Pad", "conv_dw_6_3/depthwise_kernel"], "attr": {"padding": {"s": "VkFMSUQ="}, "dilations": {"list": {"i": ["1", "1", "1", "1"]}}, "T": {"type": "DT_FLOAT"}, "strides": {"list": {"i": ["1", "2", "2", "1"]}}, "data_format": {"s": "TkhXQw=="}}}, {"name": "conv_dw_6_bn_3/FusedBatchNorm", "op": "FusedBatchNorm", "input": ["conv_dw_6_3/depthwise", "conv_dw_6_bn_3/gamma", "conv_dw_6_bn_3/beta", "conv1_bn_3/Const_4", "conv1_bn_3/Const_4"], "attr": {"data_format": {"s": "TkhXQw=="}, "is_training": {"b": true}, "epsilon": {"f": 0.0010000000474974513}, "T": {"type": "DT_FLOAT"}}}, {"name": "conv_dw_6_bn_3/cond/FusedBatchNorm/Switch", "op": "Switch", "input": ["conv_dw_6_3/depthwise", "conv1_bn/keras_learning_phase"], "attr": {"T": {"type": "DT_FLOAT"}}}, {"name": "conv_dw_6_bn_3/cond/Switch_1", "op": "Switch", "input": ["conv_dw_6_bn_3/FusedBatchNorm", "conv1_bn/keras_learning_phase"], "attr": {"T": {"type": "DT_FLOAT"}}}, {"name": "conv_dw_6_bn_3/cond/FusedBatchNorm", "op": "FusedBatchNorm", "input": ["conv_dw_6_bn_3/cond/FusedBatchNorm/Switch", "conv_dw_6_bn_3/cond/FusedBatchNorm/Switch_1", "conv_dw_6_bn_3/cond/FusedBatchNorm/Switch_2", "conv_dw_6_bn_3/cond/FusedBatchNorm/Switch_3", "conv_dw_6_bn_3/cond/FusedBatchNorm/Switch_4"], "attr": {"T": {"type": "DT_FLOAT"}, "data_format": {"s": "TkhXQw=="}, "is_training": {"b": false}, "epsilon": {"f": 0.0010000000474974513}}}, {"name": "conv_dw_6_bn_3/cond/Merge", "op": "Merge", "input": ["conv_dw_6_bn_3/cond/FusedBatchNorm", "conv_dw_6_bn_3/cond/Switch_1:1"], "attr": {"T": {"type": "DT_FLOAT"}, "N": {"i": "2"}}}, {"name": "conv_dw_6_relu_3/Relu6", "op": "Relu6", "input": ["conv_dw_6_bn_3/cond/Merge"], "attr": {"T": {"type": "DT_FLOAT"}}}, {"name": "conv_pw_6_3/convolution", "op": "Conv2D", "input": ["conv_dw_6_relu_3/Relu6", "conv_pw_6_3/kernel"], "attr": {"data_format": {"s": "TkhXQw=="}, "strides": {"list": {"i": ["1", "1", "1", "1"]}}, "use_cudnn_on_gpu": {"b": true}, "padding": {"s": "U0FNRQ=="}, "dilations": {"list": {"i": ["1", "1", "1", "1"]}}, "T": {"type": "DT_FLOAT"}}}, {"name": "conv_pw_6_bn_3/FusedBatchNorm", "op": "FusedBatchNorm", "input": ["conv_pw_6_3/convolution", "conv_pw_6_bn_3/gamma", "conv_pw_6_bn_3/beta", "conv1_bn_3/Const_4", "conv1_bn_3/Const_4"], "attr": {"T": {"type": "DT_FLOAT"}, "data_format": {"s": "TkhXQw=="}, "is_training": {"b": true}, "epsilon": {"f": 0.0010000000474974513}}}, {"name": "conv_pw_6_bn_3/cond/FusedBatchNorm/Switch", "op": "Switch", "input": ["conv_pw_6_3/convolution", "conv1_bn/keras_learning_phase"], "attr": {"T": {"type": "DT_FLOAT"}}}, {"name": "conv_pw_6_bn_3/cond/Switch_1", "op": "Switch", "input": ["conv_pw_6_bn_3/FusedBatchNorm", "conv1_bn/keras_learning_phase"], "attr": {"T": {"type": "DT_FLOAT"}}}, {"name": "conv_pw_6_bn_3/cond/FusedBatchNorm", "op": "FusedBatchNorm", "input": ["conv_pw_6_bn_3/cond/FusedBatchNorm/Switch", "conv_pw_6_bn_3/cond/FusedBatchNorm/Switch_1", "conv_pw_6_bn_3/cond/FusedBatchNorm/Switch_2", "conv_pw_6_bn_3/cond/FusedBatchNorm/Switch_3", "conv_pw_6_bn_3/cond/FusedBatchNorm/Switch_4"], "attr": {"epsilon": {"f": 0.0010000000474974513}, "T": {"type": "DT_FLOAT"}, "data_format": {"s": "TkhXQw=="}, "is_training": {"b": false}}}, {"name": "conv_pw_6_bn_3/cond/Merge", "op": "Merge", "input": ["conv_pw_6_bn_3/cond/FusedBatchNorm", "conv_pw_6_bn_3/cond/Switch_1:1"], "attr": {"T": {"type": "DT_FLOAT"}, "N": {"i": "2"}}}, {"name": "conv_pw_6_relu_3/Relu6", "op": "Relu6", "input": ["conv_pw_6_bn_3/cond/Merge"], "attr": {"T": {"type": "DT_FLOAT"}}}, {"name": "conv_dw_7_3/depthwise", "op": "DepthwiseConv2dNative", "input": ["conv_pw_6_relu_3/Relu6", "conv_dw_7_3/depthwise_kernel"], "attr": {"T": {"type": "DT_FLOAT"}, "strides": {"list": {"i": ["1", "1", "1", "1"]}}, "data_format": {"s": "TkhXQw=="}, "padding": {"s": "U0FNRQ=="}, "dilations": {"list": {"i": ["1", "1", "1", "1"]}}}}, {"name": "conv_dw_7_bn_3/FusedBatchNorm", "op": "FusedBatchNorm", "input": ["conv_dw_7_3/depthwise", "conv_dw_7_bn_3/gamma", "conv_dw_7_bn_3/beta", "conv1_bn_3/Const_4", "conv1_bn_3/Const_4"], "attr": {"is_training": {"b": true}, "epsilon": {"f": 0.0010000000474974513}, "T": {"type": "DT_FLOAT"}, "data_format": {"s": "TkhXQw=="}}}, {"name": "conv_dw_7_bn_3/cond/FusedBatchNorm/Switch", "op": "Switch", "input": ["conv_dw_7_3/depthwise", "conv1_bn/keras_learning_phase"], "attr": {"T": {"type": "DT_FLOAT"}}}, {"name": "conv_dw_7_bn_3/cond/Switch_1", "op": "Switch", "input": ["conv_dw_7_bn_3/FusedBatchNorm", "conv1_bn/keras_learning_phase"], "attr": {"T": {"type": "DT_FLOAT"}}}, {"name": "conv_dw_7_bn_3/cond/FusedBatchNorm", "op": "FusedBatchNorm", "input": ["conv_dw_7_bn_3/cond/FusedBatchNorm/Switch", "conv_dw_7_bn_3/cond/FusedBatchNorm/Switch_1", "conv_dw_7_bn_3/cond/FusedBatchNorm/Switch_2", "conv_dw_7_bn_3/cond/FusedBatchNorm/Switch_3", "conv_dw_7_bn_3/cond/FusedBatchNorm/Switch_4"], "attr": {"T": {"type": "DT_FLOAT"}, "data_format": {"s": "TkhXQw=="}, "is_training": {"b": false}, "epsilon": {"f": 0.0010000000474974513}}}, {"name": "conv_dw_7_bn_3/cond/Merge", "op": "Merge", "input": ["conv_dw_7_bn_3/cond/FusedBatchNorm", "conv_dw_7_bn_3/cond/Switch_1:1"], "attr": {"T": {"type": "DT_FLOAT"}, "N": {"i": "2"}}}, {"name": "conv_dw_7_relu_3/Relu6", "op": "Relu6", "input": ["conv_dw_7_bn_3/cond/Merge"], "attr": {"T": {"type": "DT_FLOAT"}}}, {"name": "conv_pw_7_3/convolution", "op": "Conv2D", "input": ["conv_dw_7_relu_3/Relu6", "conv_pw_7_3/kernel"], "attr": {"dilations": {"list": {"i": ["1", "1", "1", "1"]}}, "T": {"type": "DT_FLOAT"}, "strides": {"list": {"i": ["1", "1", "1", "1"]}}, "data_format": {"s": "TkhXQw=="}, "use_cudnn_on_gpu": {"b": true}, "padding": {"s": "U0FNRQ=="}}}, {"name": "conv_pw_7_bn_3/FusedBatchNorm", "op": "FusedBatchNorm", "input": ["conv_pw_7_3/convolution", "conv_pw_7_bn_3/gamma", "conv_pw_7_bn_3/beta", "conv1_bn_3/Const_4", "conv1_bn_3/Const_4"], "attr": {"data_format": {"s": "TkhXQw=="}, "is_training": {"b": true}, "epsilon": {"f": 0.0010000000474974513}, "T": {"type": "DT_FLOAT"}}}, {"name": "conv_pw_7_bn_3/cond/FusedBatchNorm/Switch", "op": "Switch", "input": ["conv_pw_7_3/convolution", "conv1_bn/keras_learning_phase"], "attr": {"T": {"type": "DT_FLOAT"}}}, {"name": "conv_pw_7_bn_3/cond/Switch_1", "op": "Switch", "input": ["conv_pw_7_bn_3/FusedBatchNorm", "conv1_bn/keras_learning_phase"], "attr": {"T": {"type": "DT_FLOAT"}}}, {"name": "conv_pw_7_bn_3/cond/FusedBatchNorm", "op": "FusedBatchNorm", "input": ["conv_pw_7_bn_3/cond/FusedBatchNorm/Switch", "conv_pw_7_bn_3/cond/FusedBatchNorm/Switch_1", "conv_pw_7_bn_3/cond/FusedBatchNorm/Switch_2", "conv_pw_7_bn_3/cond/FusedBatchNorm/Switch_3", "conv_pw_7_bn_3/cond/FusedBatchNorm/Switch_4"], "attr": {"T": {"type": "DT_FLOAT"}, "data_format": {"s": "TkhXQw=="}, "is_training": {"b": false}, "epsilon": {"f": 0.0010000000474974513}}}, {"name": "conv_pw_7_bn_3/cond/Merge", "op": "Merge", "input": ["conv_pw_7_bn_3/cond/FusedBatchNorm", "conv_pw_7_bn_3/cond/Switch_1:1"], "attr": {"N": {"i": "2"}, "T": {"type": "DT_FLOAT"}}}, {"name": "conv_pw_7_relu_3/Relu6", "op": "Relu6", "input": ["conv_pw_7_bn_3/cond/Merge"], "attr": {"T": {"type": "DT_FLOAT"}}}, {"name": "conv_dw_8_3/depthwise", "op": "DepthwiseConv2dNative", "input": ["conv_pw_7_relu_3/Relu6", "conv_dw_8_3/depthwise_kernel"], "attr": {"padding": {"s": "U0FNRQ=="}, "dilations": {"list": {"i": ["1", "1", "1", "1"]}}, "T": {"type": "DT_FLOAT"}, "strides": {"list": {"i": ["1", "1", "1", "1"]}}, "data_format": {"s": "TkhXQw=="}}}, {"name": "conv_dw_8_bn_3/FusedBatchNorm", "op": "FusedBatchNorm", "input": ["conv_dw_8_3/depthwise", "conv_dw_8_bn_3/gamma", "conv_dw_8_bn_3/beta", "conv1_bn_3/Const_4", "conv1_bn_3/Const_4"], "attr": {"T": {"type": "DT_FLOAT"}, "data_format": {"s": "TkhXQw=="}, "is_training": {"b": true}, "epsilon": {"f": 0.0010000000474974513}}}, {"name": "conv_dw_8_bn_3/cond/FusedBatchNorm/Switch", "op": "Switch", "input": ["conv_dw_8_3/depthwise", "conv1_bn/keras_learning_phase"], "attr": {"T": {"type": "DT_FLOAT"}}}, {"name": "conv_dw_8_bn_3/cond/Switch_1", "op": "Switch", "input": ["conv_dw_8_bn_3/FusedBatchNorm", "conv1_bn/keras_learning_phase"], "attr": {"T": {"type": "DT_FLOAT"}}}, {"name": "conv_dw_8_bn_3/cond/FusedBatchNorm", "op": "FusedBatchNorm", "input": ["conv_dw_8_bn_3/cond/FusedBatchNorm/Switch", "conv_dw_8_bn_3/cond/FusedBatchNorm/Switch_1", "conv_dw_8_bn_3/cond/FusedBatchNorm/Switch_2", "conv_dw_8_bn_3/cond/FusedBatchNorm/Switch_3", "conv_dw_8_bn_3/cond/FusedBatchNorm/Switch_4"], "attr": {"is_training": {"b": false}, "epsilon": {"f": 0.0010000000474974513}, "T": {"type": "DT_FLOAT"}, "data_format": {"s": "TkhXQw=="}}}, {"name": "conv_dw_8_bn_3/cond/Merge", "op": "Merge", "input": ["conv_dw_8_bn_3/cond/FusedBatchNorm", "conv_dw_8_bn_3/cond/Switch_1:1"], "attr": {"N": {"i": "2"}, "T": {"type": "DT_FLOAT"}}}, {"name": "conv_dw_8_relu_3/Relu6", "op": "Relu6", "input": ["conv_dw_8_bn_3/cond/Merge"], "attr": {"T": {"type": "DT_FLOAT"}}}, {"name": "conv_pw_8_3/convolution", "op": "Conv2D", "input": ["conv_dw_8_relu_3/Relu6", "conv_pw_8_3/kernel"], "attr": {"padding": {"s": "U0FNRQ=="}, "dilations": {"list": {"i": ["1", "1", "1", "1"]}}, "T": {"type": "DT_FLOAT"}, "strides": {"list": {"i": ["1", "1", "1", "1"]}}, "data_format": {"s": "TkhXQw=="}, "use_cudnn_on_gpu": {"b": true}}}, {"name": "conv_pw_8_bn_3/FusedBatchNorm", "op": "FusedBatchNorm", "input": ["conv_pw_8_3/convolution", "conv_pw_8_bn_3/gamma", "conv_pw_8_bn_3/beta", "conv1_bn_3/Const_4", "conv1_bn_3/Const_4"], "attr": {"data_format": {"s": "TkhXQw=="}, "is_training": {"b": true}, "epsilon": {"f": 0.0010000000474974513}, "T": {"type": "DT_FLOAT"}}}, {"name": "conv_pw_8_bn_3/cond/FusedBatchNorm/Switch", "op": "Switch", "input": ["conv_pw_8_3/convolution", "conv1_bn/keras_learning_phase"], "attr": {"T": {"type": "DT_FLOAT"}}}, {"name": "conv_pw_8_bn_3/cond/Switch_1", "op": "Switch", "input": ["conv_pw_8_bn_3/FusedBatchNorm", "conv1_bn/keras_learning_phase"], "attr": {"T": {"type": "DT_FLOAT"}}}, {"name": "conv_pw_8_bn_3/cond/FusedBatchNorm", "op": "FusedBatchNorm", "input": ["conv_pw_8_bn_3/cond/FusedBatchNorm/Switch", "conv_pw_8_bn_3/cond/FusedBatchNorm/Switch_1", "conv_pw_8_bn_3/cond/FusedBatchNorm/Switch_2", "conv_pw_8_bn_3/cond/FusedBatchNorm/Switch_3", "conv_pw_8_bn_3/cond/FusedBatchNorm/Switch_4"], "attr": {"epsilon": {"f": 0.0010000000474974513}, "T": {"type": "DT_FLOAT"}, "data_format": {"s": "TkhXQw=="}, "is_training": {"b": false}}}, {"name": "conv_pw_8_bn_3/cond/Merge", "op": "Merge", "input": ["conv_pw_8_bn_3/cond/FusedBatchNorm", "conv_pw_8_bn_3/cond/Switch_1:1"], "attr": {"T": {"type": "DT_FLOAT"}, "N": {"i": "2"}}}, {"name": "conv_pw_8_relu_3/Relu6", "op": "Relu6", "input": ["conv_pw_8_bn_3/cond/Merge"], "attr": {"T": {"type": "DT_FLOAT"}}}, {"name": "conv_dw_9_3/depthwise", "op": "DepthwiseConv2dNative", "input": ["conv_pw_8_relu_3/Relu6", "conv_dw_9_3/depthwise_kernel"], "attr": {"padding": {"s": "U0FNRQ=="}, "dilations": {"list": {"i": ["1", "1", "1", "1"]}}, "T": {"type": "DT_FLOAT"}, "strides": {"list": {"i": ["1", "1", "1", "1"]}}, "data_format": {"s": "TkhXQw=="}}}, {"name": "conv_dw_9_bn_3/FusedBatchNorm", "op": "FusedBatchNorm", "input": ["conv_dw_9_3/depthwise", "conv_dw_9_bn_3/gamma", "conv_dw_9_bn_3/beta", "conv1_bn_3/Const_4", "conv1_bn_3/Const_4"], "attr": {"epsilon": {"f": 0.0010000000474974513}, "T": {"type": "DT_FLOAT"}, "data_format": {"s": "TkhXQw=="}, "is_training": {"b": true}}}, {"name": "conv_dw_9_bn_3/cond/FusedBatchNorm/Switch", "op": "Switch", "input": ["conv_dw_9_3/depthwise", "conv1_bn/keras_learning_phase"], "attr": {"T": {"type": "DT_FLOAT"}}}, {"name": "conv_dw_9_bn_3/cond/Switch_1", "op": "Switch", "input": ["conv_dw_9_bn_3/FusedBatchNorm", "conv1_bn/keras_learning_phase"], "attr": {"T": {"type": "DT_FLOAT"}}}, {"name": "conv_dw_9_bn_3/cond/FusedBatchNorm", "op": "FusedBatchNorm", "input": ["conv_dw_9_bn_3/cond/FusedBatchNorm/Switch", "conv_dw_9_bn_3/cond/FusedBatchNorm/Switch_1", "conv_dw_9_bn_3/cond/FusedBatchNorm/Switch_2", "conv_dw_9_bn_3/cond/FusedBatchNorm/Switch_3", "conv_dw_9_bn_3/cond/FusedBatchNorm/Switch_4"], "attr": {"is_training": {"b": false}, "epsilon": {"f": 0.0010000000474974513}, "T": {"type": "DT_FLOAT"}, "data_format": {"s": "TkhXQw=="}}}, {"name": "conv_dw_9_bn_3/cond/Merge", "op": "Merge", "input": ["conv_dw_9_bn_3/cond/FusedBatchNorm", "conv_dw_9_bn_3/cond/Switch_1:1"], "attr": {"T": {"type": "DT_FLOAT"}, "N": {"i": "2"}}}, {"name": "conv_dw_9_relu_3/Relu6", "op": "Relu6", "input": ["conv_dw_9_bn_3/cond/Merge"], "attr": {"T": {"type": "DT_FLOAT"}}}, {"name": "conv_pw_9_3/convolution", "op": "Conv2D", "input": ["conv_dw_9_relu_3/Relu6", "conv_pw_9_3/kernel"], "attr": {"dilations": {"list": {"i": ["1", "1", "1", "1"]}}, "T": {"type": "DT_FLOAT"}, "strides": {"list": {"i": ["1", "1", "1", "1"]}}, "data_format": {"s": "TkhXQw=="}, "use_cudnn_on_gpu": {"b": true}, "padding": {"s": "U0FNRQ=="}}}, {"name": "conv_pw_9_bn_3/FusedBatchNorm", "op": "FusedBatchNorm", "input": ["conv_pw_9_3/convolution", "conv_pw_9_bn_3/gamma", "conv_pw_9_bn_3/beta", "conv1_bn_3/Const_4", "conv1_bn_3/Const_4"], "attr": {"epsilon": {"f": 0.0010000000474974513}, "T": {"type": "DT_FLOAT"}, "data_format": {"s": "TkhXQw=="}, "is_training": {"b": true}}}, {"name": "conv_pw_9_bn_3/cond/FusedBatchNorm/Switch", "op": "Switch", "input": ["conv_pw_9_3/convolution", "conv1_bn/keras_learning_phase"], "attr": {"T": {"type": "DT_FLOAT"}}}, {"name": "conv_pw_9_bn_3/cond/Switch_1", "op": "Switch", "input": ["conv_pw_9_bn_3/FusedBatchNorm", "conv1_bn/keras_learning_phase"], "attr": {"T": {"type": "DT_FLOAT"}}}, {"name": "conv_pw_9_bn_3/cond/FusedBatchNorm", "op": "FusedBatchNorm", "input": ["conv_pw_9_bn_3/cond/FusedBatchNorm/Switch", "conv_pw_9_bn_3/cond/FusedBatchNorm/Switch_1", "conv_pw_9_bn_3/cond/FusedBatchNorm/Switch_2", "conv_pw_9_bn_3/cond/FusedBatchNorm/Switch_3", "conv_pw_9_bn_3/cond/FusedBatchNorm/Switch_4"], "attr": {"epsilon": {"f": 0.0010000000474974513}, "T": {"type": "DT_FLOAT"}, "data_format": {"s": "TkhXQw=="}, "is_training": {"b": false}}}, {"name": "conv_pw_9_bn_3/cond/Merge", "op": "Merge", "input": ["conv_pw_9_bn_3/cond/FusedBatchNorm", "conv_pw_9_bn_3/cond/Switch_1:1"], "attr": {"T": {"type": "DT_FLOAT"}, "N": {"i": "2"}}}, {"name": "conv_pw_9_relu_3/Relu6", "op": "Relu6", "input": ["conv_pw_9_bn_3/cond/Merge"], "attr": {"T": {"type": "DT_FLOAT"}}}, {"name": "conv_dw_10_3/depthwise", "op": "DepthwiseConv2dNative", "input": ["conv_pw_9_relu_3/Relu6", "conv_dw_10_3/depthwise_kernel"], "attr": {"strides": {"list": {"i": ["1", "1", "1", "1"]}}, "data_format": {"s": "TkhXQw=="}, "padding": {"s": "U0FNRQ=="}, "dilations": {"list": {"i": ["1", "1", "1", "1"]}}, "T": {"type": "DT_FLOAT"}}}, {"name": "conv_dw_10_bn_3/FusedBatchNorm", "op": "FusedBatchNorm", "input": ["conv_dw_10_3/depthwise", "conv_dw_10_bn_3/gamma", "conv_dw_10_bn_3/beta", "conv1_bn_3/Const_4", "conv1_bn_3/Const_4"], "attr": {"T": {"type": "DT_FLOAT"}, "data_format": {"s": "TkhXQw=="}, "is_training": {"b": true}, "epsilon": {"f": 0.0010000000474974513}}}, {"name": "conv_dw_10_bn_3/cond/FusedBatchNorm/Switch", "op": "Switch", "input": ["conv_dw_10_3/depthwise", "conv1_bn/keras_learning_phase"], "attr": {"T": {"type": "DT_FLOAT"}}}, {"name": "conv_dw_10_bn_3/cond/Switch_1", "op": "Switch", "input": ["conv_dw_10_bn_3/FusedBatchNorm", "conv1_bn/keras_learning_phase"], "attr": {"T": {"type": "DT_FLOAT"}}}, {"name": "conv_dw_10_bn_3/cond/FusedBatchNorm", "op": "FusedBatchNorm", "input": ["conv_dw_10_bn_3/cond/FusedBatchNorm/Switch", "conv_dw_10_bn_3/cond/FusedBatchNorm/Switch_1", "conv_dw_10_bn_3/cond/FusedBatchNorm/Switch_2", "conv_dw_10_bn_3/cond/FusedBatchNorm/Switch_3", "conv_dw_10_bn_3/cond/FusedBatchNorm/Switch_4"], "attr": {"data_format": {"s": "TkhXQw=="}, "is_training": {"b": false}, "epsilon": {"f": 0.0010000000474974513}, "T": {"type": "DT_FLOAT"}}}, {"name": "conv_dw_10_bn_3/cond/Merge", "op": "Merge", "input": ["conv_dw_10_bn_3/cond/FusedBatchNorm", "conv_dw_10_bn_3/cond/Switch_1:1"], "attr": {"T": {"type": "DT_FLOAT"}, "N": {"i": "2"}}}, {"name": "conv_dw_10_relu_3/Relu6", "op": "Relu6", "input": ["conv_dw_10_bn_3/cond/Merge"], "attr": {"T": {"type": "DT_FLOAT"}}}, {"name": "conv_pw_10_3/convolution", "op": "Conv2D", "input": ["conv_dw_10_relu_3/Relu6", "conv_pw_10_3/kernel"], "attr": {"use_cudnn_on_gpu": {"b": true}, "padding": {"s": "U0FNRQ=="}, "dilations": {"list": {"i": ["1", "1", "1", "1"]}}, "T": {"type": "DT_FLOAT"}, "data_format": {"s": "TkhXQw=="}, "strides": {"list": {"i": ["1", "1", "1", "1"]}}}}, {"name": "conv_pw_10_bn_3/FusedBatchNorm", "op": "FusedBatchNorm", "input": ["conv_pw_10_3/convolution", "conv_pw_10_bn_3/gamma", "conv_pw_10_bn_3/beta", "conv1_bn_3/Const_4", "conv1_bn_3/Const_4"], "attr": {"epsilon": {"f": 0.0010000000474974513}, "T": {"type": "DT_FLOAT"}, "data_format": {"s": "TkhXQw=="}, "is_training": {"b": true}}}, {"name": "conv_pw_10_bn_3/cond/FusedBatchNorm/Switch", "op": "Switch", "input": ["conv_pw_10_3/convolution", "conv1_bn/keras_learning_phase"], "attr": {"T": {"type": "DT_FLOAT"}}}, {"name": "conv_pw_10_bn_3/cond/Switch_1", "op": "Switch", "input": ["conv_pw_10_bn_3/FusedBatchNorm", "conv1_bn/keras_learning_phase"], "attr": {"T": {"type": "DT_FLOAT"}}}, {"name": "conv_pw_10_bn_3/cond/FusedBatchNorm", "op": "FusedBatchNorm", "input": ["conv_pw_10_bn_3/cond/FusedBatchNorm/Switch", "conv_pw_10_bn_3/cond/FusedBatchNorm/Switch_1", "conv_pw_10_bn_3/cond/FusedBatchNorm/Switch_2", "conv_pw_10_bn_3/cond/FusedBatchNorm/Switch_3", "conv_pw_10_bn_3/cond/FusedBatchNorm/Switch_4"], "attr": {"T": {"type": "DT_FLOAT"}, "data_format": {"s": "TkhXQw=="}, "is_training": {"b": false}, "epsilon": {"f": 0.0010000000474974513}}}, {"name": "conv_pw_10_bn_3/cond/Merge", "op": "Merge", "input": ["conv_pw_10_bn_3/cond/FusedBatchNorm", "conv_pw_10_bn_3/cond/Switch_1:1"], "attr": {"T": {"type": "DT_FLOAT"}, "N": {"i": "2"}}}, {"name": "conv_pw_10_relu_3/Relu6", "op": "Relu6", "input": ["conv_pw_10_bn_3/cond/Merge"], "attr": {"T": {"type": "DT_FLOAT"}}}, {"name": "conv_dw_11_3/depthwise", "op": "DepthwiseConv2dNative", "input": ["conv_pw_10_relu_3/Relu6", "conv_dw_11_3/depthwise_kernel"], "attr": {"padding": {"s": "U0FNRQ=="}, "dilations": {"list": {"i": ["1", "1", "1", "1"]}}, "T": {"type": "DT_FLOAT"}, "strides": {"list": {"i": ["1", "1", "1", "1"]}}, "data_format": {"s": "TkhXQw=="}}}, {"name": "conv_dw_11_bn_3/FusedBatchNorm", "op": "FusedBatchNorm", "input": ["conv_dw_11_3/depthwise", "conv_dw_11_bn_3/gamma", "conv_dw_11_bn_3/beta", "conv1_bn_3/Const_4", "conv1_bn_3/Const_4"], "attr": {"is_training": {"b": true}, "epsilon": {"f": 0.0010000000474974513}, "T": {"type": "DT_FLOAT"}, "data_format": {"s": "TkhXQw=="}}}, {"name": "conv_dw_11_bn_3/cond/FusedBatchNorm/Switch", "op": "Switch", "input": ["conv_dw_11_3/depthwise", "conv1_bn/keras_learning_phase"], "attr": {"T": {"type": "DT_FLOAT"}}}, {"name": "conv_dw_11_bn_3/cond/Switch_1", "op": "Switch", "input": ["conv_dw_11_bn_3/FusedBatchNorm", "conv1_bn/keras_learning_phase"], "attr": {"T": {"type": "DT_FLOAT"}}}, {"name": "conv_dw_11_bn_3/cond/FusedBatchNorm", "op": "FusedBatchNorm", "input": ["conv_dw_11_bn_3/cond/FusedBatchNorm/Switch", "conv_dw_11_bn_3/cond/FusedBatchNorm/Switch_1", "conv_dw_11_bn_3/cond/FusedBatchNorm/Switch_2", "conv_dw_11_bn_3/cond/FusedBatchNorm/Switch_3", "conv_dw_11_bn_3/cond/FusedBatchNorm/Switch_4"], "attr": {"data_format": {"s": "TkhXQw=="}, "is_training": {"b": false}, "epsilon": {"f": 0.0010000000474974513}, "T": {"type": "DT_FLOAT"}}}, {"name": "conv_dw_11_bn_3/cond/Merge", "op": "Merge", "input": ["conv_dw_11_bn_3/cond/FusedBatchNorm", "conv_dw_11_bn_3/cond/Switch_1:1"], "attr": {"T": {"type": "DT_FLOAT"}, "N": {"i": "2"}}}, {"name": "conv_dw_11_relu_3/Relu6", "op": "Relu6", "input": ["conv_dw_11_bn_3/cond/Merge"], "attr": {"T": {"type": "DT_FLOAT"}}}, {"name": "conv_pw_11_3/convolution", "op": "Conv2D", "input": ["conv_dw_11_relu_3/Relu6", "conv_pw_11_3/kernel"], "attr": {"T": {"type": "DT_FLOAT"}, "strides": {"list": {"i": ["1", "1", "1", "1"]}}, "data_format": {"s": "TkhXQw=="}, "use_cudnn_on_gpu": {"b": true}, "padding": {"s": "U0FNRQ=="}, "dilations": {"list": {"i": ["1", "1", "1", "1"]}}}}, {"name": "conv_pw_11_bn_3/FusedBatchNorm", "op": "FusedBatchNorm", "input": ["conv_pw_11_3/convolution", "conv_pw_11_bn_3/gamma", "conv_pw_11_bn_3/beta", "conv1_bn_3/Const_4", "conv1_bn_3/Const_4"], "attr": {"epsilon": {"f": 0.0010000000474974513}, "T": {"type": "DT_FLOAT"}, "data_format": {"s": "TkhXQw=="}, "is_training": {"b": true}}}, {"name": "conv_pw_11_bn_3/cond/FusedBatchNorm/Switch", "op": "Switch", "input": ["conv_pw_11_3/convolution", "conv1_bn/keras_learning_phase"], "attr": {"T": {"type": "DT_FLOAT"}}}, {"name": "conv_pw_11_bn_3/cond/Switch_1", "op": "Switch", "input": ["conv_pw_11_bn_3/FusedBatchNorm", "conv1_bn/keras_learning_phase"], "attr": {"T": {"type": "DT_FLOAT"}}}, {"name": "conv_pw_11_bn_3/cond/FusedBatchNorm", "op": "FusedBatchNorm", "input": ["conv_pw_11_bn_3/cond/FusedBatchNorm/Switch", "conv_pw_11_bn_3/cond/FusedBatchNorm/Switch_1", "conv_pw_11_bn_3/cond/FusedBatchNorm/Switch_2", "conv_pw_11_bn_3/cond/FusedBatchNorm/Switch_3", "conv_pw_11_bn_3/cond/FusedBatchNorm/Switch_4"], "attr": {"epsilon": {"f": 0.0010000000474974513}, "T": {"type": "DT_FLOAT"}, "data_format": {"s": "TkhXQw=="}, "is_training": {"b": false}}}, {"name": "conv_pw_11_bn_3/cond/Merge", "op": "Merge", "input": ["conv_pw_11_bn_3/cond/FusedBatchNorm", "conv_pw_11_bn_3/cond/Switch_1:1"], "attr": {"T": {"type": "DT_FLOAT"}, "N": {"i": "2"}}}, {"name": "conv_pw_11_relu_3/Relu6", "op": "Relu6", "input": ["conv_pw_11_bn_3/cond/Merge"], "attr": {"T": {"type": "DT_FLOAT"}}}, {"name": "conv_pad_12_3/Pad", "op": "Pad", "input": ["conv_pw_11_relu_3/Relu6", "conv1_pad_3/Pad/paddings"], "attr": {"Tpaddings": {"type": "DT_INT32"}, "T": {"type": "DT_FLOAT"}}}, {"name": "conv_dw_12_3/depthwise", "op": "DepthwiseConv2dNative", "input": ["conv_pad_12_3/Pad", "conv_dw_12_3/depthwise_kernel"], "attr": {"padding": {"s": "VkFMSUQ="}, "dilations": {"list": {"i": ["1", "1", "1", "1"]}}, "T": {"type": "DT_FLOAT"}, "strides": {"list": {"i": ["1", "2", "2", "1"]}}, "data_format": {"s": "TkhXQw=="}}}, {"name": "conv_dw_12_bn_3/FusedBatchNorm", "op": "FusedBatchNorm", "input": ["conv_dw_12_3/depthwise", "conv_dw_12_bn_3/gamma", "conv_dw_12_bn_3/beta", "conv1_bn_3/Const_4", "conv1_bn_3/Const_4"], "attr": {"epsilon": {"f": 0.0010000000474974513}, "T": {"type": "DT_FLOAT"}, "data_format": {"s": "TkhXQw=="}, "is_training": {"b": true}}}, {"name": "conv_dw_12_bn_3/cond/FusedBatchNorm/Switch", "op": "Switch", "input": ["conv_dw_12_3/depthwise", "conv1_bn/keras_learning_phase"], "attr": {"T": {"type": "DT_FLOAT"}}}, {"name": "conv_dw_12_bn_3/cond/Switch_1", "op": "Switch", "input": ["conv_dw_12_bn_3/FusedBatchNorm", "conv1_bn/keras_learning_phase"], "attr": {"T": {"type": "DT_FLOAT"}}}, {"name": "conv_dw_12_bn_3/cond/FusedBatchNorm", "op": "FusedBatchNorm", "input": ["conv_dw_12_bn_3/cond/FusedBatchNorm/Switch", "conv_dw_12_bn_3/cond/FusedBatchNorm/Switch_1", "conv_dw_12_bn_3/cond/FusedBatchNorm/Switch_2", "conv_dw_12_bn_3/cond/FusedBatchNorm/Switch_3", "conv_dw_12_bn_3/cond/FusedBatchNorm/Switch_4"], "attr": {"epsilon": {"f": 0.0010000000474974513}, "T": {"type": "DT_FLOAT"}, "data_format": {"s": "TkhXQw=="}, "is_training": {"b": false}}}, {"name": "conv_dw_12_bn_3/cond/Merge", "op": "Merge", "input": ["conv_dw_12_bn_3/cond/FusedBatchNorm", "conv_dw_12_bn_3/cond/Switch_1:1"], "attr": {"T": {"type": "DT_FLOAT"}, "N": {"i": "2"}}}, {"name": "conv_dw_12_relu_3/Relu6", "op": "Relu6", "input": ["conv_dw_12_bn_3/cond/Merge"], "attr": {"T": {"type": "DT_FLOAT"}}}, {"name": "conv_pw_12_3/convolution", "op": "Conv2D", "input": ["conv_dw_12_relu_3/Relu6", "conv_pw_12_3/kernel"], "attr": {"T": {"type": "DT_FLOAT"}, "strides": {"list": {"i": ["1", "1", "1", "1"]}}, "data_format": {"s": "TkhXQw=="}, "use_cudnn_on_gpu": {"b": true}, "padding": {"s": "U0FNRQ=="}, "dilations": {"list": {"i": ["1", "1", "1", "1"]}}}}, {"name": "conv_pw_12_bn_3/FusedBatchNorm", "op": "FusedBatchNorm", "input": ["conv_pw_12_3/convolution", "conv_pw_12_bn_3/gamma", "conv_pw_12_bn_3/beta", "conv1_bn_3/Const_4", "conv1_bn_3/Const_4"], "attr": {"T": {"type": "DT_FLOAT"}, "data_format": {"s": "TkhXQw=="}, "is_training": {"b": true}, "epsilon": {"f": 0.0010000000474974513}}}, {"name": "conv_pw_12_bn_3/cond/FusedBatchNorm/Switch", "op": "Switch", "input": ["conv_pw_12_3/convolution", "conv1_bn/keras_learning_phase"], "attr": {"T": {"type": "DT_FLOAT"}}}, {"name": "conv_pw_12_bn_3/cond/Switch_1", "op": "Switch", "input": ["conv_pw_12_bn_3/FusedBatchNorm", "conv1_bn/keras_learning_phase"], "attr": {"T": {"type": "DT_FLOAT"}}}, {"name": "conv_pw_12_bn_3/cond/FusedBatchNorm", "op": "FusedBatchNorm", "input": ["conv_pw_12_bn_3/cond/FusedBatchNorm/Switch", "conv_pw_12_bn_3/cond/FusedBatchNorm/Switch_1", "conv_pw_12_bn_3/cond/FusedBatchNorm/Switch_2", "conv_pw_12_bn_3/cond/FusedBatchNorm/Switch_3", "conv_pw_12_bn_3/cond/FusedBatchNorm/Switch_4"], "attr": {"epsilon": {"f": 0.0010000000474974513}, "T": {"type": "DT_FLOAT"}, "data_format": {"s": "TkhXQw=="}, "is_training": {"b": false}}}, {"name": "conv_pw_12_bn_3/cond/Merge", "op": "Merge", "input": ["conv_pw_12_bn_3/cond/FusedBatchNorm", "conv_pw_12_bn_3/cond/Switch_1:1"], "attr": {"T": {"type": "DT_FLOAT"}, "N": {"i": "2"}}}, {"name": "conv_pw_12_relu_3/Relu6", "op": "Relu6", "input": ["conv_pw_12_bn_3/cond/Merge"], "attr": {"T": {"type": "DT_FLOAT"}}}, {"name": "conv_dw_13_3/depthwise", "op": "DepthwiseConv2dNative", "input": ["conv_pw_12_relu_3/Relu6", "conv_dw_13_3/depthwise_kernel"], "attr": {"T": {"type": "DT_FLOAT"}, "strides": {"list": {"i": ["1", "1", "1", "1"]}}, "data_format": {"s": "TkhXQw=="}, "padding": {"s": "U0FNRQ=="}, "dilations": {"list": {"i": ["1", "1", "1", "1"]}}}}, {"name": "conv_dw_13_bn_3/FusedBatchNorm", "op": "FusedBatchNorm", "input": ["conv_dw_13_3/depthwise", "conv_dw_13_bn_3/gamma", "conv_dw_13_bn_3/beta", "conv1_bn_3/Const_4", "conv1_bn_3/Const_4"], "attr": {"is_training": {"b": true}, "epsilon": {"f": 0.0010000000474974513}, "T": {"type": "DT_FLOAT"}, "data_format": {"s": "TkhXQw=="}}}, {"name": "conv_dw_13_bn_3/cond/FusedBatchNorm/Switch", "op": "Switch", "input": ["conv_dw_13_3/depthwise", "conv1_bn/keras_learning_phase"], "attr": {"T": {"type": "DT_FLOAT"}}}, {"name": "conv_dw_13_bn_3/cond/Switch_1", "op": "Switch", "input": ["conv_dw_13_bn_3/FusedBatchNorm", "conv1_bn/keras_learning_phase"], "attr": {"T": {"type": "DT_FLOAT"}}}, {"name": "conv_dw_13_bn_3/cond/FusedBatchNorm", "op": "FusedBatchNorm", "input": ["conv_dw_13_bn_3/cond/FusedBatchNorm/Switch", "conv_dw_13_bn_3/cond/FusedBatchNorm/Switch_1", "conv_dw_13_bn_3/cond/FusedBatchNorm/Switch_2", "conv_dw_13_bn_3/cond/FusedBatchNorm/Switch_3", "conv_dw_13_bn_3/cond/FusedBatchNorm/Switch_4"], "attr": {"data_format": {"s": "TkhXQw=="}, "is_training": {"b": false}, "epsilon": {"f": 0.0010000000474974513}, "T": {"type": "DT_FLOAT"}}}, {"name": "conv_dw_13_bn_3/cond/Merge", "op": "Merge", "input": ["conv_dw_13_bn_3/cond/FusedBatchNorm", "conv_dw_13_bn_3/cond/Switch_1:1"], "attr": {"N": {"i": "2"}, "T": {"type": "DT_FLOAT"}}}, {"name": "conv_dw_13_relu_3/Relu6", "op": "Relu6", "input": ["conv_dw_13_bn_3/cond/Merge"], "attr": {"T": {"type": "DT_FLOAT"}}}, {"name": "conv_pw_13_3/convolution", "op": "Conv2D", "input": ["conv_dw_13_relu_3/Relu6", "conv_pw_13_3/kernel"], "attr": {"padding": {"s": "U0FNRQ=="}, "dilations": {"list": {"i": ["1", "1", "1", "1"]}}, "T": {"type": "DT_FLOAT"}, "data_format": {"s": "TkhXQw=="}, "strides": {"list": {"i": ["1", "1", "1", "1"]}}, "use_cudnn_on_gpu": {"b": true}}}, {"name": "conv_pw_13_bn_3/FusedBatchNorm", "op": "FusedBatchNorm", "input": ["conv_pw_13_3/convolution", "conv_pw_13_bn_3/gamma", "conv_pw_13_bn_3/beta", "conv1_bn_3/Const_4", "conv1_bn_3/Const_4"], "attr": {"epsilon": {"f": 0.0010000000474974513}, "T": {"type": "DT_FLOAT"}, "data_format": {"s": "TkhXQw=="}, "is_training": {"b": true}}}, {"name": "conv_pw_13_bn_3/cond/FusedBatchNorm/Switch", "op": "Switch", "input": ["conv_pw_13_3/convolution", "conv1_bn/keras_learning_phase"], "attr": {"T": {"type": "DT_FLOAT"}}}, {"name": "conv_pw_13_bn_3/cond/Switch_1", "op": "Switch", "input": ["conv_pw_13_bn_3/FusedBatchNorm", "conv1_bn/keras_learning_phase"], "attr": {"T": {"type": "DT_FLOAT"}}}, {"name": "conv_pw_13_bn_3/cond/FusedBatchNorm", "op": "FusedBatchNorm", "input": ["conv_pw_13_bn_3/cond/FusedBatchNorm/Switch", "conv_pw_13_bn_3/cond/FusedBatchNorm/Switch_1", "conv_pw_13_bn_3/cond/FusedBatchNorm/Switch_2", "conv_pw_13_bn_3/cond/FusedBatchNorm/Switch_3", "conv_pw_13_bn_3/cond/FusedBatchNorm/Switch_4"], "attr": {"data_format": {"s": "TkhXQw=="}, "is_training": {"b": false}, "epsilon": {"f": 0.0010000000474974513}, "T": {"type": "DT_FLOAT"}}}, {"name": "conv_pw_13_bn_3/cond/Merge", "op": "Merge", "input": ["conv_pw_13_bn_3/cond/FusedBatchNorm", "conv_pw_13_bn_3/cond/Switch_1:1"], "attr": {"T": {"type": "DT_FLOAT"}, "N": {"i": "2"}}}, {"name": "conv_pw_13_relu_3/Relu6", "op": "Relu6", "input": ["conv_pw_13_bn_3/cond/Merge"], "attr": {"T": {"type": "DT_FLOAT"}}}, {"name": "global_average_pooling2d_4/Mean", "op": "Mean", "input": ["conv_pw_13_relu_3/Relu6", "global_average_pooling2d_4/Mean/reduction_indices"], "attr": {"T": {"type": "DT_FLOAT"}, "keep_dims": {"b": false}, "Tidx": {"type": "DT_INT32"}}}, {"name": "dense_9/MatMul", "op": "MatMul", "input": ["global_average_pooling2d_4/Mean", "dense_9/kernel"], "attr": {"transpose_b": {"b": false}, "T": {"type": "DT_FLOAT"}, "transpose_a": {"b": false}}}, {"name": "dense_9/BiasAdd", "op": "BiasAdd", "input": ["dense_9/MatMul", "dense_9/bias"], "attr": {"T": {"type": "DT_FLOAT"}, "data_format": {"s": "TkhXQw=="}}}, {"name": "dense_9/Relu", "op": "Relu", "input": ["dense_9/BiasAdd"], "attr": {"T": {"type": "DT_FLOAT"}}}, {"name": "dense_10/MatMul", "op": "MatMul", "input": ["dense_9/Relu", "dense_10/kernel"], "attr": {"T": {"type": "DT_FLOAT"}, "transpose_a": {"b": false}, "transpose_b": {"b": false}}}, {"name": "dense_10/BiasAdd", "op": "BiasAdd", "input": ["dense_10/MatMul", "dense_10/bias"], "attr": {"T": {"type": "DT_FLOAT"}, "data_format": {"s": "TkhXQw=="}}}, {"name": "dense_10/Relu", "op": "Relu", "input": ["dense_10/BiasAdd"], "attr": {"T": {"type": "DT_FLOAT"}}}, {"name": "dense_11/MatMul", "op": "MatMul", "input": ["dense_10/Relu", "dense_11/kernel"], "attr": {"T": {"type": "DT_FLOAT"}, "transpose_a": {"b": false}, "transpose_b": {"b": false}}}, {"name": "dense_11/BiasAdd", "op": "BiasAdd", "input": ["dense_11/MatMul", "dense_11/bias"], "attr": {"T": {"type": "DT_FLOAT"}, "data_format": {"s": "TkhXQw=="}}}, {"name": "dense_11/Relu", "op": "Relu", "input": ["dense_11/BiasAdd"], "attr": {"T": {"type": "DT_FLOAT"}}}, {"name": "dense_12/MatMul", "op": "MatMul", "input": ["dense_11/Relu", "dense_12/kernel"], "attr": {"T": {"type": "DT_FLOAT"}, "transpose_a": {"b": false}, "transpose_b": {"b": false}}}, {"name": "dense_12/BiasAdd", "op": "BiasAdd", "input": ["dense_12/MatMul", "dense_12/bias"], "attr": {"T": {"type": "DT_FLOAT"}, "data_format": {"s": "TkhXQw=="}}}, {"name": "dense_12/Softmax", "op": "Softmax", "input": ["dense_12/BiasAdd"], "attr": {"T": {"type": "DT_FLOAT"}}}], "library": {}, "versions": {}}, "weightsManifest": [{"paths": ["group1-shard1of6", "group1-shard2of6", "group1-shard3of6", "group1-shard4of6", "group1-shard5of6", "group1-shard6of6"], "weights": [{"name": "dense_12/bias", "shape": [5], "dtype": "float32"}, {"name": "dense_12/kernel", "shape": [512, 5], "dtype": "float32"}, {"name": "dense_11/bias", "shape": [512], "dtype": "float32"}, {"name": "dense_11/kernel", "shape": [1024, 512], "dtype": "float32"}, {"name": "dense_10/bias", "shape": [1024], "dtype": "float32"}, {"name": "dense_10/kernel", "shape": [1024, 1024], "dtype": "float32"}, {"name": "dense_9/bias", "shape": [1024], "dtype": "float32"}, {"name": "dense_9/kernel", "shape": [1024, 1024], "dtype": "float32"}, {"name": "global_average_pooling2d_4/Mean/reduction_indices", "shape": [2], "dtype": "int32"}, {"name": "conv1_bn/keras_learning_phase/input", "shape": [], "dtype": "bool"}, {"name": "conv1_bn_3/Const_4", "shape": [0], "dtype": "float32"}, {"name": "conv_pw_13_bn_3/beta", "shape": [1024], "dtype": "float32"}, {"name": "conv_pw_13_bn_3/gamma", "shape": [1024], "dtype": "float32"}, {"name": "conv_pw_13_3/kernel", "shape": [1, 1, 1024, 1024], "dtype": "float32"}, {"name": "conv_dw_13_bn_3/beta", "shape": [1024], "dtype": "float32"}, {"name": "conv_dw_13_bn_3/gamma", "shape": [1024], "dtype": "float32"}, {"name": "conv_dw_13_3/depthwise_kernel", "shape": [3, 3, 1024, 1], "dtype": "float32"}, {"name": "conv_pw_12_bn_3/beta", "shape": [1024], "dtype": "float32"}, {"name": "conv_pw_12_bn_3/gamma", "shape": [1024], "dtype": "float32"}, {"name": "conv_pw_12_3/kernel", "shape": [1, 1, 512, 1024], "dtype": "float32"}, {"name": "conv_dw_12_bn_3/beta", "shape": [512], "dtype": "float32"}, {"name": "conv_dw_12_bn_3/gamma", "shape": [512], "dtype": "float32"}, {"name": "conv_dw_12_3/depthwise_kernel", "shape": [3, 3, 512, 1], "dtype": "float32"}, {"name": "conv1_pad_3/Pad/paddings", "shape": [4, 2], "dtype": "int32"}, {"name": "conv_pw_11_bn_3/beta", "shape": [512], "dtype": "float32"}, {"name": "conv_pw_11_bn_3/gamma", "shape": [512], "dtype": "float32"}, {"name": "conv_pw_11_3/kernel", "shape": [1, 1, 512, 512], "dtype": "float32"}, {"name": "conv_dw_11_bn_3/beta", "shape": [512], "dtype": "float32"}, {"name": "conv_dw_11_bn_3/gamma", "shape": [512], "dtype": "float32"}, {"name": "conv_dw_11_3/depthwise_kernel", "shape": [3, 3, 512, 1], "dtype": "float32"}, {"name": "conv_pw_10_bn_3/beta", "shape": [512], "dtype": "float32"}, {"name": "conv_pw_10_bn_3/gamma", "shape": [512], "dtype": "float32"}, {"name": "conv_pw_10_3/kernel", "shape": [1, 1, 512, 512], "dtype": "float32"}, {"name": "conv_dw_10_bn_3/beta", "shape": [512], "dtype": "float32"}, {"name": "conv_dw_10_bn_3/gamma", "shape": [512], "dtype": "float32"}, {"name": "conv_dw_10_3/depthwise_kernel", "shape": [3, 3, 512, 1], "dtype": "float32"}, {"name": "conv_pw_9_bn_3/beta", "shape": [512], "dtype": "float32"}, {"name": "conv_pw_9_bn_3/gamma", "shape": [512], "dtype": "float32"}, {"name": "conv_pw_9_3/kernel", "shape": [1, 1, 512, 512], "dtype": "float32"}, {"name": "conv_dw_9_bn_3/beta", "shape": [512], "dtype": "float32"}, {"name": "conv_dw_9_bn_3/gamma", "shape": [512], "dtype": "float32"}, {"name": "conv_dw_9_3/depthwise_kernel", "shape": [3, 3, 512, 1], "dtype": "float32"}, {"name": "conv_pw_8_bn_3/beta", "shape": [512], "dtype": "float32"}, {"name": "conv_pw_8_bn_3/gamma", "shape": [512], "dtype": "float32"}, {"name": "conv_pw_8_3/kernel", "shape": [1, 1, 512, 512], "dtype": "float32"}, {"name": "conv_dw_8_bn_3/beta", "shape": [512], "dtype": "float32"}, {"name": "conv_dw_8_bn_3/gamma", "shape": [512], "dtype": "float32"}, {"name": "conv_dw_8_3/depthwise_kernel", "shape": [3, 3, 512, 1], "dtype": "float32"}, {"name": "conv_pw_7_bn_3/beta", "shape": [512], "dtype": "float32"}, {"name": "conv_pw_7_bn_3/gamma", "shape": [512], "dtype": "float32"}, {"name": "conv_pw_7_3/kernel", "shape": [1, 1, 512, 512], "dtype": "float32"}, {"name": "conv_dw_7_bn_3/beta", "shape": [512], "dtype": "float32"}, {"name": "conv_dw_7_bn_3/gamma", "shape": [512], "dtype": "float32"}, {"name": "conv_dw_7_3/depthwise_kernel", "shape": [3, 3, 512, 1], "dtype": "float32"}, {"name": "conv_pw_6_bn_3/beta", "shape": [512], "dtype": "float32"}, {"name": "conv_pw_6_bn_3/gamma", "shape": [512], "dtype": "float32"}, {"name": "conv_pw_6_3/kernel", "shape": [1, 1, 256, 512], "dtype": "float32"}, {"name": "conv_dw_6_bn_3/beta", "shape": [256], "dtype": "float32"}, {"name": "conv_dw_6_bn_3/gamma", "shape": [256], "dtype": "float32"}, {"name": "conv_dw_6_3/depthwise_kernel", "shape": [3, 3, 256, 1], "dtype": "float32"}, {"name": "conv_pw_5_bn_3/beta", "shape": [256], "dtype": "float32"}, {"name": "conv_pw_5_bn_3/gamma", "shape": [256], "dtype": "float32"}, {"name": "conv_pw_5_3/kernel", "shape": [1, 1, 256, 256], "dtype": "float32"}, {"name": "conv_dw_5_bn_3/beta", "shape": [256], "dtype": "float32"}, {"name": "conv_dw_5_bn_3/gamma", "shape": [256], "dtype": "float32"}, {"name": "conv_dw_5_3/depthwise_kernel", "shape": [3, 3, 256, 1], "dtype": "float32"}, {"name": "conv_pw_4_bn_3/beta", "shape": [256], "dtype": "float32"}, {"name": "conv_pw_4_bn_3/gamma", "shape": [256], "dtype": "float32"}, {"name": "conv_pw_4_3/kernel", "shape": [1, 1, 128, 256], "dtype": "float32"}, {"name": "conv_dw_4_bn_3/beta", "shape": [128], "dtype": "float32"}, {"name": "conv_dw_4_bn_3/gamma", "shape": [128], "dtype": "float32"}, {"name": "conv_dw_4_3/depthwise_kernel", "shape": [3, 3, 128, 1], "dtype": "float32"}, {"name": "conv_pw_3_bn_3/beta", "shape": [128], "dtype": "float32"}, {"name": "conv_pw_3_bn_3/gamma", "shape": [128], "dtype": "float32"}, {"name": "conv_pw_3_3/kernel", "shape": [1, 1, 128, 128], "dtype": "float32"}, {"name": "conv_dw_3_bn_3/beta", "shape": [128], "dtype": "float32"}, {"name": "conv_dw_3_bn_3/gamma", "shape": [128], "dtype": "float32"}, {"name": "conv_dw_3_3/depthwise_kernel", "shape": [3, 3, 128, 1], "dtype": "float32"}, {"name": "conv_pw_2_bn_3/beta", "shape": [128], "dtype": "float32"}, {"name": "conv_pw_2_bn_3/gamma", "shape": [128], "dtype": "float32"}, {"name": "conv_pw_2_3/kernel", "shape": [1, 1, 64, 128], "dtype": "float32"}, {"name": "conv_dw_2_bn_3/beta", "shape": [64], "dtype": "float32"}, {"name": "conv_dw_2_bn_3/gamma", "shape": [64], "dtype": "float32"}, {"name": "conv_dw_2_3/depthwise_kernel", "shape": [3, 3, 64, 1], "dtype": "float32"}, {"name": "conv_pw_1_bn_3/beta", "shape": [64], "dtype": "float32"}, {"name": "conv_pw_1_bn_3/gamma", "shape": [64], "dtype": "float32"}, {"name": "conv_pw_1_3/kernel", "shape": [1, 1, 32, 64], "dtype": "float32"}, {"name": "conv_dw_1_bn_3/beta", "shape": [32], "dtype": "float32"}, {"name": "conv_dw_1_bn_3/gamma", "shape": [32], "dtype": "float32"}, {"name": "conv_dw_1_3/depthwise_kernel", "shape": [3, 3, 32, 1], "dtype": "float32"}, {"name": "conv1_bn_3/beta", "shape": [32], "dtype": "float32"}, {"name": "conv1_bn_3/gamma", "shape": [32], "dtype": "float32"}, {"name": "conv1_3/kernel", "shape": [3, 3, 3, 32], "dtype": "float32"}, {"name": "conv1_bn_3/moving_variance", "shape": [32], "dtype": "float32"}, {"name": "conv1_bn_3/moving_mean", "shape": [32], "dtype": "float32"}, {"name": "conv_dw_1_bn_3/moving_variance", "shape": [32], "dtype": "float32"}, {"name": "conv_dw_1_bn_3/moving_mean", "shape": [32], "dtype": "float32"}, {"name": "conv_pw_1_bn_3/moving_variance", "shape": [64], "dtype": "float32"}, {"name": "conv_pw_1_bn_3/moving_mean", "shape": [64], "dtype": "float32"}, {"name": "conv_dw_2_bn_3/moving_variance", "shape": [64], "dtype": "float32"}, {"name": "conv_dw_2_bn_3/moving_mean", "shape": [64], "dtype": "float32"}, {"name": "conv_pw_2_bn_3/moving_variance", "shape": [128], "dtype": "float32"}, {"name": "conv_pw_2_bn_3/moving_mean", "shape": [128], "dtype": "float32"}, {"name": "conv_dw_3_bn_3/moving_variance", "shape": [128], "dtype": "float32"}, {"name": "conv_dw_3_bn_3/moving_mean", "shape": [128], "dtype": "float32"}, {"name": "conv_pw_3_bn_3/moving_variance", "shape": [128], "dtype": "float32"}, {"name": "conv_pw_3_bn_3/moving_mean", "shape": [128], "dtype": "float32"}, {"name": "conv_dw_4_bn_3/moving_variance", "shape": [128], "dtype": "float32"}, {"name": "conv_dw_4_bn_3/moving_mean", "shape": [128], "dtype": "float32"}, {"name": "conv_pw_4_bn_3/moving_variance", "shape": [256], "dtype": "float32"}, {"name": "conv_pw_4_bn_3/moving_mean", "shape": [256], "dtype": "float32"}, {"name": "conv_dw_5_bn_3/moving_variance", "shape": [256], "dtype": "float32"}, {"name": "conv_dw_5_bn_3/moving_mean", "shape": [256], "dtype": "float32"}, {"name": "conv_pw_5_bn_3/moving_variance", "shape": [256], "dtype": "float32"}, {"name": "conv_pw_5_bn_3/moving_mean", "shape": [256], "dtype": "float32"}, {"name": "conv_dw_6_bn_3/moving_variance", "shape": [256], "dtype": "float32"}, {"name": "conv_dw_6_bn_3/moving_mean", "shape": [256], "dtype": "float32"}, {"name": "conv_pw_6_bn_3/moving_variance", "shape": [512], "dtype": "float32"}, {"name": "conv_pw_6_bn_3/moving_mean", "shape": [512], "dtype": "float32"}, {"name": "conv_dw_7_bn_3/moving_variance", "shape": [512], "dtype": "float32"}, {"name": "conv_dw_7_bn_3/moving_mean", "shape": [512], "dtype": "float32"}, {"name": "conv_pw_7_bn_3/moving_variance", "shape": [512], "dtype": "float32"}, {"name": "conv_pw_7_bn_3/moving_mean", "shape": [512], "dtype": "float32"}, {"name": "conv_dw_8_bn_3/moving_variance", "shape": [512], "dtype": "float32"}, {"name": "conv_dw_8_bn_3/moving_mean", "shape": [512], "dtype": "float32"}, {"name": "conv_pw_8_bn_3/moving_variance", "shape": [512], "dtype": "float32"}, {"name": "conv_pw_8_bn_3/moving_mean", "shape": [512], "dtype": "float32"}, {"name": "conv_dw_9_bn_3/moving_variance", "shape": [512], "dtype": "float32"}, {"name": "conv_dw_9_bn_3/moving_mean", "shape": [512], "dtype": "float32"}, {"name": "conv_pw_9_bn_3/moving_variance", "shape": [512], "dtype": "float32"}, {"name": "conv_pw_9_bn_3/moving_mean", "shape": [512], "dtype": "float32"}, {"name": "conv_dw_10_bn_3/moving_variance", "shape": [512], "dtype": "float32"}, {"name": "conv_dw_10_bn_3/moving_mean", "shape": [512], "dtype": "float32"}, {"name": "conv_pw_10_bn_3/moving_variance", "shape": [512], "dtype": "float32"}, {"name": "conv_pw_10_bn_3/moving_mean", "shape": [512], "dtype": "float32"}, {"name": "conv_dw_11_bn_3/moving_variance", "shape": [512], "dtype": "float32"}, {"name": "conv_dw_11_bn_3/moving_mean", "shape": [512], "dtype": "float32"}, {"name": "conv_pw_11_bn_3/moving_variance", "shape": [512], "dtype": "float32"}, {"name": "conv_pw_11_bn_3/moving_mean", "shape": [512], "dtype": "float32"}, {"name": "conv_dw_12_bn_3/moving_variance", "shape": [512], "dtype": "float32"}, {"name": "conv_dw_12_bn_3/moving_mean", "shape": [512], "dtype": "float32"}, {"name": "conv_pw_12_bn_3/moving_variance", "shape": [1024], "dtype": "float32"}, {"name": "conv_pw_12_bn_3/moving_mean", "shape": [1024], "dtype": "float32"}, {"name": "conv_dw_13_bn_3/moving_variance", "shape": [1024], "dtype": "float32"}, {"name": "conv_dw_13_bn_3/moving_mean", "shape": [1024], "dtype": "float32"}, {"name": "conv_pw_13_bn_3/moving_variance", "shape": [1024], "dtype": "float32"}, {"name": "conv_pw_13_bn_3/moving_mean", "shape": [1024], "dtype": "float32"}]}]}